Assets/MoodMeBarracuda/Networks/emotions_4_2.onnx (onnx, 826923 bytes, 76 tensors)

sequential_3/model_3/separable_conv2d_9/separable_conv2d/ReadVariableOp_1:0 f4 [256, 256, 1, 1]
-0.053918965 0.16551282 0.012482636 0.10606549 0.06469911 0.17135008 -0.02851703 0.096371986
-0.07012569 0.036408138 0.13340497 0.009099337 0.052729864 0.1930138 0.061681975 0.055114888
0.07023566 -0.039037813 0.019376587 0.20999716 0.043325048 -0.010656843 -0.08812987 -0.070576884
-0.07470316 -0.11628996 -0.06047718 0.05677444 0.04043449 0.12899816 -0.07327682 -0.056254223
-0.047441665 0.023375396 -0.009796074 0.034050807 -0.20294489 0.02460051 -0.113017276 -0.022475969
-0.08669172 -0.060880303 -0.11667882 0.028826917 0.027697857 -0.035121433 -0.045867655 0.09274717
-0.21919821 -0.07069688 0.15814833 0.006015258 -0.14125687 0.063754365 -0.046839833 -0.014404829
-0.08488231 0.06363777 -0.04306904 0.08831637 -0.12615456 0.04831659 0.012743983 -0.03159967
0.14900243 0.045742325 0.033847686 0.20934646 -0.05412845 0.1621421 0.087279536 0.04795792
-0.006063301 -0.014149556 0.06153969 0.12729129 -0.0039824108 0.13400397 -0.05195908 0.12006238
0.0830191 -0.12859425 0.16601788 0.13571116 0.028724238 0.027909117 -0.02207709 0.012158146
-0.078377485 -0.024267131 0.005322022 -0.044141956 0.040911667 -0.09514722 0.10055918 -0.036858767
-0.07546557 -0.09121969 -0.07358902 -0.020489251 -0.05508969 -0.015399131 0.004262851 0.10408998
0.09133246 0.06622348 0.13822433 -0.04349537 -0.064762235 -0.06498113 0.06822108 0.01483854
-0.16516346 -0.038133644 -0.1405875 -0.016667712 -0.04669955 -0.03308737 0.045016143 -0.07308637
-0.15695746 0.12405473 -0.19752392 0.031757243 -0.027496213 -0.027867964 -0.05871756 0.10850918
-0.0027094225 -0.218058 -0.025205994 0.0052761356 -0.11900396 -0.0642655 -0.12701058 -0.15236978
-0.02819544 0.06368801 -0.13468517 -0.016963279 0.05193538 -0.072363675 0.19288723 -0.01056022
0.046033494 0.043809116 0.0029058116 -0.10495925 -0.108208925 0.08202674 0.06543506 0.044639695
0.04185239 -0.06334464 -0.05674851 -0.111213356 0.043276656 0.08214243 0.006675772 0.094096094
0.11041858 -0.06618708 0.036961075 -0.078306146 -0.056697294 0.07631556 -0.06761027 0.030872172
0.12951022 0.09307606 -0.099011905 0.040390167 0.00297917 -0.0052731493 -0.020647261 -0.12615266
-0.15845361 0.06798295 -0.0068744225 -0.06682834 0.11160471 0.020234577 0.12972191 0.094686285
0.09037911 -0.04685475 0.042478602 -0.15214115 0.06880358 0.09226463 -0.095975295 -0.040662054
-0.09616525 0.04071774 0.019904096 -0.07443727 0.17121623 -0.029408334 -0.021771405 0.09747168
-0.033652406 -0.026312817 -0.093764886 -0.19967757 -0.057235267 -0.064279795 -0.06779866 0.016103098
-0.016830858 -0.041395776 -0.15436707 -0.14519893 0.09805589 0.062321093 -0.047578003 0.015526132
-0.035354596 0.056834057 -0.033042777 -0.13797185 -6.2213556e-05 -0.042139173 -0.04954126 0.09053236
-0.0016481692 -0.09592125 0.06310563 -0.17382072 -0.2107387 0.03562549 0.022213764 0.08210722
0.030277504 0.06493467 -0.13591614 0.039903093 -0.04416678 -0.0725045 -0.0017131094 9.601395e-05
-0.011560942 0.18050869 -0.008064102 -0.2105764 0.075343624 -0.108963914 -0.014424645 -0.11144338
0.03346061 -0.089620136 -0.1905799 0.014206878 0.06425949 0.036767267 0.10135586 -0.011841431
00000000: 22da 5cbd 317c 293e f883 4c3c dd38 d93d
00000010: f880 843d 6576 2f3e 8c9c e9bc ad5e c53d
00000020: 0f9e 8fbd b320 153d 509b 083e 6315 153c
00000030: 45fb 573d 69a5 453e 3da6 7c3d 26c0 613d
00000040: b7d7 8f3d 1de6 1fbd a6bb 9e3c 7f09 573e
00000050: 9b75 313d 0a9a 2ebc 6f7d b4bd 9d8a 90bd
00000060: f8fd 98bd 6e29 eebd ebb6 77bd 518c 683d
00000070: a39e 253d 1818 043e 2812 96bd d46a 66bd
00000080: 3152 42bd c27d bf3c b67f 20bc dc78 0b3d
00000090: c9d0 4fbe 0287 c93c 9a75 e7bd 861f b8bc
000000a0: 6e8b b1bd a05d 79bd 4ef5 eebd 6d26 ec3c
000000b0: 9ee6 e23c 7edb 0fbd b9df 3bbd 3af2 bd3d
000000c0: 7f75 60be 87c9 90bd a3f1 213e a41b c53b
000000d0: a4a5 10be a691 823d 20db 3fbd 3b02 6cbc
000000e0: c7d6 adbd 8554 823d 2969 30bd 37df b43d
000000f0: a92e 01be 9ee7 453d 24cc 503c a86e 01bd
00000100: 1894 183e 4e5c 3b3d dfa3 0a3d eb5e 563e
00000110: cbb5 5dbd 9408 263e 9dbf b23d 866f 443d
00000120: a8ae c6bb 8ad3 67bc 0b11 7c3d a658 023e
00000130: e27e 82bb 5638 093e 0bd3 54bd 44e3 f53d
00000140: eb05 aa3d 36ae 03be 9700 2a3e def7 0a3e
00000150: 184f eb3c a9a1 e43c 03db b4bc f632 473c
00000160: 6084 a0bd ddcb c6bc 5b64 ae3b 32ce 34bd
00000170: fe92 273d 8cdc c2bd f9f1 cd3d 38f9 16bd
00000180: b18d 9abd 64d1 babd d7b5 96bd 13d9 a7bc
00000190: baa5 61bd a34c 7cbc 63af 8b3b 212d d53d
000001a0: 830c bb3d 2da0 873d ae8a 0d3e 3328 32bd
000001b0: 10a2 84bd d414 85bd 7eb7 8b3d 591d 733c
000001c0: 9c20 29be 0632 1cbd 2bf6 0fbe ba8a 88bc
000001d0: 0748 3fbd 9f86 07bd d962 383d 4fae 95bd
000001e0: 75b9 20be 6810 fe3d b643 4abe e213 023d
000001f0: bd3f e1bc 5b4b e4bc d381 70bd 103a de3d
00000200: 9190 31bb 994a 5fbe cd7c cebc 6fe3 ac3b
00000210: 59b8 f3bd a19d 83bd 100f 02be d306 1cbe
00000220: 20fa e6bc dc6e 823d e9ea 09be 93f6 8abc
00000230: 31ba 543d 6833 94bd 3b84 453e c604 2dbc
00000240: 9e8d 3c3d 3071 333d 6e6f 3e3b e0f4 d6bd
00000250: a49c ddbd a3fd a73d d102 863d 1dd8 363d
00000260: 696d 2b3d d6ba 81bd 2071 68bd d4c3 e3bd
00000270: dd42 313d 4a3a a83d 6fc0 da3b 74b5 c03d
00000280: 2323 e23d 188d 87bd 7f64 173d f95e a0bd
00000290: 6c3b 68bd 554b 9c3d 4177 8abd a3e7 fc3c
000002a0: 549e 043e a99e be3d c1c6 cabd 2970 253d
000002b0: 2e3e 433b 62ca acbb 7224 a9bc 2a2e 01be
000002c0: aa41 22be a53a 8b3d d642 e1bb 4cdd 88bd
000002d0: 0391 e43d fcc2 a53c d2d5 043e e2ea c13d
000002e0: af18 b93d c4ea 3fbd 0bfe 2d3d e4ca 1bbe
000002f0: e4e8 8c3d 3df5 bc3d b28e c4bd 418d 26bd
00000300: 49f2 c4bd a5c7 263d ea0d a33c 9172 98bd
00000310: 4f53 2f3e bfe9 f0bc f259 b2bc 3b9f c73d
00000320: 1bd7 09bd fa8d d7bc ce07 c0bd 4778 4cbe
00000330: 876f 6abd 20a5 83bd 06da 8abd a5ea 833c
00000340: dee0 89bc 9e8e 29bd 6712 1ebe 07af 14be
00000350: 87d1 c83d 6744 7f3d 27e1 42bd 5161 7e3c
00000360: fbcf 10bd d4ca 683d dd57 07bd 7e48 0dbe
00000370: a678 82b8 209a 2cbd c7eb 4abd 0869 b93d
00000380: 6207 d8ba 5c72 c4bd 863d 813d 0ffe 31be
00000390: e3cb 57be 09ec 113d a4f9 b53c d527 a83d
000003a0: 8708 f83c 78fc 843d 9a2d 0bbe 6d71 233d
000003b0: 3ae8 34bd 3d7d 94bd 6a8a e0ba 195b c938
000003c0: 1b6a 3dbc 45d7 383e 4c1f 04bc 57a1 57be
000003d0: c24d 9a3d 7928 dfbd 5955 6cbc 6d3c e4bd
000003e0: fe0d 093d c38a b7bd 6127 43be f7c3 683c
000003f0: 7b9a 833d 4699 163d a993 cf3d 9002 42bc

sequential_3/model_3/separable_conv2d_8/separable_conv2d/ReadVariableOp_1:0 f4 [256, 128, 1, 1]
-0.09789599 0.14543188 0.08829273 -0.037155982 -0.013741852 -0.07419763 -0.00039741915 0.007920727
0.025022253 0.048269488 0.03166227 -0.15161058 -0.058144018 0.089526296 0.058963638 -0.05710806
0.014999708 -0.13842332 0.10244934 -0.26130503 0.07791363 0.08899209 0.04577148 0.1460423
0.068152174 -0.13633583 0.054894567 0.03123726 0.03193742 -0.1386183 -0.16646867 -0.13829604
0.14263019 0.09149338 5.016458e-05 0.0047326386 0.119773544 0.17277627 0.02722844 0.14964038
0.08111375 -0.1136892 0.11418309 -0.1361176 0.062391505 0.049346782 0.06296178 -0.010045337
0.06739994 -0.013691874 0.165463 0.123695165 0.21770225 -0.12947033 -0.008641397 0.13417572
0.20815656 -0.18500675 0.12307753 0.14992082 0.16192013 0.15654689 -0.061742987 -0.17897892
0.10164633 -0.031242669 0.07641672 -0.005519654 -0.1023079 -0.104565255 -0.0444509 0.08326552
0.02293145 0.015785256 -0.06784921 0.26709536 -0.08041757 -0.049245507 -0.034021396 0.08508672
0.06993998 0.20007984 0.09050543 0.0018650187 0.09518998 0.03140488 -0.055214893 -0.17057672
-0.17196035 -0.033758834 0.0030794262 0.11199792 -0.053136855 0.08354971 0.027575014 0.008456379
-0.030403094 0.18149653 0.0385983 0.043812513 -0.10842755 0.073853955 0.20031434 0.25481287
0.16568144 0.21378559 0.12936012 0.04611881 0.107021675 -0.010745496 -0.024276413 0.07030399
0.047594626 0.19790016 -0.009960188 -0.20370738 0.13720517 0.067427754 -0.021049833 -0.043425012
-0.09615172 0.062024478 -0.13933516 -0.09227065 -0.20285182 0.09920659 -0.106175 0.13196486
0.25375465 0.29075566 -0.13311736 -0.10402062 -0.0518719 0.0047462294 -0.04742675 -0.02531983
0.038981866 -0.14026292 0.06798052 0.053352877 -0.01919623 -0.05797372 -0.13978331 0.12691063
0.020007942 0.15845671 -0.07966768 -0.1503425 0.107551135 -0.026971364 0.09032684 -0.14310865
0.11255932 -0.062093083 0.07061371 0.015474341 -0.24529184 -0.20823963 -0.1425399 0.23895977
0.0009541525 0.09849304 -0.08431974 0.04427992 0.008662352 0.06332776 0.15485786 0.12503822
-0.20389186 -0.07661202 -0.02078278 -0.032306958 -0.031435315 -0.038563423 -0.012483424 0.11691668
-0.0036692154 0.12585138 -0.036333703 -0.108382694 0.13593447 -0.019019147 -0.003604066 0.018062845
0.15349507 -0.04669256 -0.14281617 -0.123116985 0.07579967 0.08478034 -0.08555756 0.12346751
0.016958179 0.0019724404 -0.086512215 -0.226743 0.039012402 -0.1574507 -0.004138103 -0.07250092
-0.035697646 0.055360448 0.013838365 0.10465765 -0.089902796 -0.008643783 -0.06571266 -0.14787759
0.06128171 -0.045481946 0.1911638 -0.06602741 0.1830111 0.009486708 0.23857874 -0.1313635
-0.0056190575 0.05016498 0.1148973 -0.11787244 0.057358127 -0.0758507 -0.014859687 0.10293714
-0.24491784 0.10363176 0.055447925 0.08144461 0.16490848 0.08135673 0.027960997 0.18526444
0.015959116 -0.009247737 -0.053992942 0.10037935 0.04498529 0.02788284 -0.16474284 0.05911627
0.048960548 -0.0023720544 0.04508233 -0.10862447 -0.031500194 0.089873955 -0.14202946 -0.10909917
-0.01559352 -0.07423123 0.0016344034 0.06863082 0.017268663 0.29624087 -0.008561859 -0.022890968
00000000: b17d c8bd 18ec 143e d2d2 b43d df30 18bd
00000010: 8125 61bc edf4 97bd b25c d0b9 f0c5 013c
00000020: 78fb cc3c 3ab6 453d 4cb0 013d ce3f 1bbe
00000030: 6c28 6ebd 9059 b73d db83 713d 24ea 69bd
00000040: 56c1 753c d8be 0dbe f6d0 d13d c6c9 85be
00000050: 2e91 9f3d 7c41 b63d e07a 3b3d 1d8c 153e
00000060: 5e93 8b3d 9f9b 0bbe 20d9 603d 48e5 ff3c
00000070: d0d0 023d f5f1 0dbe c376 2abe 7a9d 0dbe
00000080: a60d 123e e260 bb3d cf67 5238 4014 9b3b
00000090: d54b f53d 43ec 303e 2d0e df3c 543b 193e
000000a0: f71e a63d e2d5 e8bd d3d8 e93d 6a62 0bbe
000000b0: 3c8e 7f3d da1f 4a3d 1bf2 803d 3295 24bc
000000c0: fb08 8a3d e253 60bc 226f 293e e453 fd3d
000000d0: 57ed 5e3e df93 04be a594 0dbc 5c65 093e
000000e0: fe26 553e 6972 3dbe 1210 fc3d d884 193e
000000f0: 64ce 253e d44d 203e 37e6 7cbd 4046 37be
00000100: f32b d03d a0f0 ffbc 5f80 9c3d 37de b4bb
00000110: ce86 d1bd 4f26 d6bd 2612 36bd 1d87 aa3d
00000120: bcda bb3c 1550 813c 87f4 8abd b9c0 883e
00000130: f8b1 a4bd a8b5 49bd 055a 0bbd f241 ae3d
00000140: b13c 8f3d bbe1 4c3e e95a b93d a573 f43a
00000150: f7f2 c23d 67a2 003d 0329 62bd aaab 2ebe
00000160: 6016 30be b446 0abd 33d0 493b 2a5f e53d
00000170: 08a6 59bd 1c1c ab3d ffe4 e13c a08c 0a3c
00000180: e90f f9bc 3ada 393e 4019 1e3d c074 333d
00000190: 430f debd be40 973d 341f 4d3e d576 823e
000001a0: 65a8 293e 9cea 5a3e fb76 043e 14e7 3c3d
000001b0: 2e2e db3d e00d 30bc 54df c6bc 8afb 8f3d
000001c0: 95f2 423d 57a6 4a3e 0e30 23bc ab98 50be
000001d0: 837f 0c3e 9017 8a3d b370 acbc 6dde 31bd
000001e0: 31eb c4bd 610d 7e3d e0ad 0ebe 65f8 bcbd
000001f0: 63b8 4fbe d32c cb3d 4772 d9bd cc21 073e
00000200: 21ec 813e eddd 943e eb4f 08be c308 d5bd
00000210: a177 54bd 4286 9b3b 8d42 42bd 886b cfbc
00000220: 73ab 1f3d 15a1 0fbe 5f39 8b3d 8c88 5a3d
00000230: 6a41 9dbc da75 6dbd 5b23 0fbe dcf4 013e
00000240: b2e7 a33c 7a42 223e cf28 a3bd 62f3 19be
00000250: c543 dc3d 0df3 dcbc 47fd b83d 138b 12be
00000260: 8085 e63d 5155 7ebd ec9d 903d 1788 7d3c
00000270: c92d 7bbe c53c 55be fbf5 11be dfb1 743e
00000280: 1720 7a3a b8b6 c93d d4af acbd dd5e 353d
00000290: 8aec 0d3c fcb1 813d 0f93 1e3e 050a 003e
000002a0: 07c9 50be c3e6 9cbd a640 aabc 4d54 04bd
000002b0: 51c2 00bd aef4 1dbd 4687 4cbc 0372 ef3d
000002c0: 3877 70bb 2fdf 003e a6d2 14bd bff7 ddbd
000002d0: 6832 0b3e 0bce 9bbc 3232 6cbb 88f8 933c
000002e0: d02d 1d3e b340 3fbd 673e 12be c224 fcbd
000002f0: db3c 9b3d 51a1 ad3d cd38 afbd 89dc fc3d
00000300: e1eb 8a3c 0f44 013b 512d b1bd 512f 68be
00000310: 78cb 1f3d c23a 21be ed98 87bb 5d7b 94bd
00000320: b237 12bd a3c1 623d 4fba 623c c056 d63d
00000330: f51e b8bd a79e 0dbc 5c94 86bd 396d 17be
00000340: 8802 7b3d 474b 3abd 71c0 433e 6139 87bd
00000350: 4367 3b3e 236e 1b3c fc4d 743e 2784 06be
00000360: 1220 b8bb cb79 4d3d 474f eb3d 1b67 f1bd
00000370: 5bf0 6a3d 9d57 9bbd 0b76 73bc b5d0 d23d
00000380: becb 7abe e33c d43d 5d1d 633d 6fcc a63d
00000390: c5dd 283e 5b9e a63d 760e e53c f6b5 3d3e
000003a0: b1bc 823c d283 17bc b427 5dbd b093 cd3d
000003b0: 7f42 383d 8e6a e43c 59b2 28be e723 723d
000003c0: db8a 483d 7874 1bbb 40a8 383d 8276 debd
000003d0: 5906 01bd d60f b83d 2c70 11be 636f dfbd
000003e0: f77b 7fbc 8b06 98bd 7a39 d63a 518e 8c3d
000003f0: 0377 8d3c e2ac 973e 0a47 0cbc d785 bbbc

sequential_3/model_3/separable_conv2d_7/separable_conv2d/ReadVariableOp_1:0 f4 [128, 128, 1, 1]
-0.024925172 -0.1083558 -0.16357797 0.0049433853 0.042763673 -0.08293286 -0.014173493 0.10644214
0.15252095 -0.16760151 0.024305055 0.1746301 0.2068408 0.0853916 -0.010899739 -0.048883438
0.054835282 -0.2182162 0.02163477 -0.2334751 -0.28328216 0.19709444 0.032341827 0.045450736
0.17817917 0.10906545 0.1739911 -0.022150083 -0.002021502 -0.23334406 -0.04252688 0.045075033
0.051738363 -0.14694044 0.015490154 0.09807017 0.22382139 -0.054119676 0.045375988 0.009802637
0.078251734 -0.086853035 -0.36925954 0.118028305 0.08009908 0.018529177 -0.018167747 0.016240336
0.0015340393 0.084217675 0.17474183 -0.35818145 -0.19434686 0.06379545 0.028765952 0.06694011
0.052129492 0.18488018 -0.007562255 0.019191213 0.030598432 0.0597985 -0.05677812 0.02960659
0.18366587 -0.09435324 0.09020543 0.28509006 0.075175956 0.0007252867 0.07331836 0.1463532
0.23359647 -0.05197526 0.17760015 -0.039147682 -0.006159367 -0.08299781 -0.026530448 0.11925372
0.20469956 -0.040968314 0.04083774 -0.0057702265 0.034007784 0.055738922 0.22578697 -0.08030155
0.07219587 0.15797916 -0.111851916 0.053262543 0.025348956 -0.16154173 0.12513602 -0.14561683
0.006154643 0.2883187 -0.054553997 0.2715088 -0.32424185 -0.17365435 0.03667211 -0.19790079
0.077923656 0.10861617 0.035720285 -0.05456018 0.1361525 -0.07956262 -0.018488845 0.13413064
0.12391533 -0.12476115 0.0130544305 -0.09948058 0.108662516 -0.06568436 0.05584629 -0.0068707718
0.08175465 -0.20474686 -0.022203011 -0.26953313 -0.016903523 -0.13274963 0.0016697893 -0.20991912
-0.0056327446 -0.19682594 0.084460326 -0.029150957 0.14787418 0.0755796 -0.14081642 -0.0600098
-0.112751335 -0.017152729 -0.052107334 0.20427898 -0.17839438 0.30578813 -0.036324516 0.046904396
-0.11490696 0.09198702 0.100363314 0.11500735 -0.07064426 -0.091471784 0.20885274 -0.014657568
0.010417999 0.092022344 0.011644235 0.10139578 -0.07117205 -0.10954291 0.11451549 0.14558086
-0.06618279 -0.10431754 -0.048798587 0.16115649 -0.17587051 -0.14525875 -0.09792066 -0.0069619752
0.12587556 0.036429785 -0.063046515 0.12931935 -0.006479281 -0.16731559 -0.008249142 -0.116406865
0.0131173525 0.025722744 -0.043815356 0.08656702 -0.28840613 0.15671444 0.0621443 0.028527124
0.17946537 0.07813875 0.104540534 0.14654787 -0.010315139 -0.074885905 0.044223536 0.030599462
0.18043181 0.05578952 -0.07237321 -0.029492635 0.17913024 -0.18986097 -0.033243682 -0.035811782
-0.010105408 0.06952533 0.071619675 -0.041198354 -0.08644754 -0.032880392 0.07753613 0.0857388
0.04960242 -0.19510882 0.07452319 0.1616603 -0.19420247 -0.05008955 -0.1357079 0.024899796
-0.18887575 -0.15042776 -0.21310626 -0.23950619 0.0019589006 -0.03647558 0.17693685 0.20682245
0.009541301 0.05436879 -0.27986488 0.07591827 -0.08664747 -0.0059392336 0.1251188 -0.12969743
-0.09074702 -0.07684464 0.08205725 0.018875413 -0.15908186 -0.197763 -0.08312563 0.001831935
-0.14847663 0.0005341468 0.107544 0.17409335 -0.15532395 -0.023764372 0.2410739 -0.2704158
-0.1320225 -0.15933616 -0.14219284 -0.111469194 0.26534232 0.038419336 0.058695257 0.05142815
00000000: e02f ccbc a5e9 ddbd fc80 27be 1ffc a13b
00000010: f628 2f3d b4d8 a9bd f037 68bc 56fe d93d
00000020: 742e 1c3e bb9f 2bbe 651b c73c 3cd2 323e
00000030: 13ce 533e cbe1 ae3d d294 32bc 003a 48bd
00000040: f69a 603d 1174 5fbe 673b b13c 1914 6fbe
00000050: 5c0a 91be 20d3 493e dd78 043d 8d2a 3a3d
00000060: 9a74 363e b55d df3d b92a 323e 1774 b5bc
00000070: 2d7b 04bb bff1 6ebe aa30 2ebd 99a0 383d
00000080: 9beb 533d 8e77 16be 6aca 7d3c 03d9 c83d
00000090: 6f31 653e 98ac 5dbd 2cdc 393d 3d9b 203c
000000a0: 7242 a03d 01e0 b1bd 960f bdbe d3b8 f13d
000000b0: fd0a a43d 80ca 973c 87d4 94bc 740a 853c
000000c0: d111 c93a 517a ac3d 86ef 323e 8f63 b7be
000000d0: dd02 47be 30a7 823d 93a6 eb3c e517 893d
000000e0: bc85 553d 3b51 3d3e cbcc f7bb e436 9d3c
000000f0: 90a9 fa3c 46ef 743d 2d90 68bd 8589 f23c
00000100: e812 3c3e 463c c1bd a0bd b83d 53f7 913e
00000110: daf5 993d 2b21 3e3a f027 963d 9ddd 153e
00000120: ea33 6f3e 03e4 54bd d0dc 353e 5259 20bd
00000130: 84d4 c9bb c1fa a9bd 6256 d9bc 4b3b f43d
00000140: c39c 513e 64ce 27bd 7945 273d 2b14 bdbb
00000150: bf4b 0b3d 7f4e 643d b334 673e 2475 a4bd
00000160: 6edb 933d 4ac5 213e 9e12 e5bd d329 5a3d
00000170: 9da8 cf3c 326b 25be a823 003e 941c 15be
00000180: e3ac c93b 829e 933e 0374 5fbd 3403 8b3e
00000190: 0703 a6be 72d2 31be 7f35 163d 81a6 4abe
000001a0: 7096 9f3d 2872 de3d 6f4f 123d 7f7a 5fbd
000001b0: 906b 0b3e baf1 a2bd eb75 97bc 8b59 093e
000001c0: 52c7 fd3d c682 ffbd 40e2 553c 79bc cbbd
000001d0: 748a de3d 8685 86bd 14bf 643d 3624 e1bb
000001e0: fb6e a73d 29a9 51be 17e3 b5bc 3f00 8abe
000001f0: 4279 8abc 85ef 07be d5dc da3a 0af5 56be
00000200: e392 b8bb bd8c 49be 89f9 ac3d fdcd eebc
00000210: 546c 173e 7ac9 9a3d 2e32 10be d6cc 75bd
00000220: 2cea e6bd e183 8cbc 806e 55bd 822e 513e
00000230: 04ad 36be 4390 9c3e 04c9 14bd d31e 403d
00000240: 5754 ebbd b163 bc3d 488b cd3d f988 eb3d
00000250: f0ad 90bd 8f55 bbbd 7edd 553e 4c26 70bc
00000260: 41b0 2a3c 3676 bc3d 76c7 3e3c 97a8 cf3d
00000270: a7c2 91bd 0858 e0bd 1987 ea3d 2613 153e
00000280: d88a 87bd 6fa4 d5bd 07e1 47bd 3506 253e
00000290: 6617 34be b6be 14be a18a c8bd 4821 e4bb
000002a0: 86e5 003e 6637 153d 881e 81bd 4b6c 043e
000002b0: 2650 d4bb c754 2bbe 6927 07bc b966 eebd
000002c0: 2aea 563c 81b8 d23c bb77 33bd 0d4a b13d
000002d0: f8a9 93be c079 203e 068b 7e3d b7b1 e93c
000002e0: c5c5 373e 3507 a03d 5919 d63d a510 163e
000002f0: d400 29bc c85d 99bd bd23 353d b9ab fa3c
00000300: 1ec3 383e 8d83 643d 6838 94bd 8a9a f1bc
00000310: eb6d 373e ea6a 42be 872a 08bd 60af 12bd
00000320: 2791 25bc 4c63 8e3d 56ad 923d 9bbf 28bd
00000330: 680b b1bd 97ad 06bd 43cb 9e3d d397 af3d
00000340: e82b 4b3d 9bca 47be 9d9f 983d 478a 253e
00000350: 03dd 46be b32a 4dbd 03f7 0abe a8fa cb3c
00000360: a568 41be bc09 1abe 8738 5abe 1c41 75be
00000370: e660 003b 6b67 15bd ef2e 353e 44c9 533e
00000380: 1e53 1c3c cfb1 5e3d 734a 8fbe 0a7b 9b3d
00000390: 3b74 b1bd e79d c2bb 251f 003e 67cf 04be
000003a0: 93d9 b9bd b960 9dbd a20d a83d 9ca0 9a3c
000003b0: 5be6 22be 6282 4abe c53d aabd 8a1d f03a
000003c0: 420a 18be fc05 0c3a 0740 dc3d 8745 323e
000003d0: 3e0d 1fbe 80ad c2bc 14dc 763e f173 8abe
000003e0: e830 07be 0529 23be 009b 11be f649 e4bd
000003f0: f3da 873e 985d 1d3d 706a 703d 53a6 523d

sequential_3/model_3/separable_conv2d_6/separable_conv2d/ReadVariableOp_1:0 f4 [128, 64, 1, 1]
0.024789782 -0.05574427 0.06752232 -0.18920045 0.087005645 0.20117067 -0.1460657 -0.047045693
-0.02363356 -0.16487016 0.24728683 0.015879963 0.08705764 -0.23515595 0.16893102 -0.07985968
-0.18316506 0.025827799 0.16364205 -0.032551963 -0.11026536 0.019808017 0.20423746 0.01557771
0.074790984 0.006332027 0.03509078 0.30157885 0.022133924 0.07867406 -0.17652634 0.10762988
0.18656272 0.0033857487 0.041606005 -0.08288261 -0.13625208 0.08875827 -0.07277242 0.12700981
-0.17322579 0.15188973 0.16391775 0.06062738 0.120275274 0.17615904 0.1853863 -0.027168687
-0.041406736 0.09515556 -0.071264744 -0.20666914 -0.15211844 0.30287966 -0.12287429 0.17011131
-0.05453847 0.31464967 0.017496822 0.17102703 0.006907323 0.071050666 0.08378037 0.035108548
0.26009482 0.012954239 -0.17668742 -0.00083921436 0.076057024 -0.10299419 0.020644829 -0.011395924
-0.15203094 0.053879216 -0.026943723 -0.22909799 0.12561701 0.05557283 -0.009651698 0.22921617
-0.021511314 -0.07501999 -0.19214708 -0.13600823 -0.07427859 0.17796487 0.053379588 0.088961236
-0.019243337 0.21564816 0.053967364 -0.15454614 -0.2115683 0.060797784 0.052728646 0.23447435
-0.11240135 0.05955196 -0.1827163 -0.2599509 -0.1990549 0.18434487 0.063021176 -0.06253279
-0.09995913 0.13077179 0.28646538 0.16537869 -0.084360585 -0.25592607 -0.045012206 -0.29702738
0.16820748 0.10403697 -0.055129535 -0.12486666 -0.08409609 0.05257936 0.0040176627 0.017578216
-0.16339837 -0.12893625 -0.12925355 -0.22705017 -0.097718835 0.16477783 0.15535524 -0.12489686
-0.08241059 0.23741314 -0.11981265 0.08615365 0.006434997 -0.04391427 0.077586874 -0.06842791
0.28942937 0.011311656 -0.19861132 0.08164872 0.11553877 0.10358275 -0.0068716924 0.1776805
0.2115224 0.029816894 0.13938966 -0.23097254 -0.07644813 0.08115599 -0.0044094464 -0.021084
-0.0838042 0.15255502 0.24803576 -0.1930247 0.23904099 -0.15535824 -0.023565603 0.10516652
-0.04982174 -0.08359913 -0.08989559 0.16704933 0.12712702 -0.28949693 0.16767947 -0.1591205
0.068934076 0.040722974 0.06003519 0.1519876 0.0516844 -0.10726137 -0.07834461 0.20200469
0.221161 0.09903286 0.026855927 -0.039534863 0.14258397 -0.096031174 -0.07346152 -0.21496426
-0.012630259 0.2633992 -0.18175943 0.23200332 -0.017296143 0.107033044 0.10432349 -0.12750825
-0.022100624 -0.058609966 0.05163049 0.08436712 0.18403669 -0.0185291 0.07593706 -0.082444355
-0.117986 -0.027934298 -0.1425776 -0.11047537 0.018356754 -0.23066859 -0.2997388 0.09454488
-0.054050703 -0.0037403344 -0.016019726 0.21039054 0.059832316 -0.05298596 -0.15425856 0.008275905
0.08363791 -0.08935046 0.076883584 -0.031301577 -0.08322616 0.2324729 -0.07750858 -0.016820325
0.2527399 0.09705526 -0.00714765 -0.124340065 0.12180328 0.15446292 0.116376445 0.2314514
0.26252738 -0.09594879 -0.24242455 -0.01870366 0.09414494 0.20677869 0.017022483 0.093844965
-0.1396206 0.19264466 -0.0070897755 -0.073495686 -0.16287468 0.052110363 0.0316506 -0.24452719
-0.2060656 -0.12629087 -0.22706757 0.02579147 0.20786794 0.27541766 -0.1359111 0.1769037
00000000: f113 cb3c 1b54 64bd 2449 8a3d c3bd 41be
00000010: 0430 b23d afff 4d3e 3f92 15be fcb2 40bd
00000020: 2b9b c1bc b9d3 28be c238 7d3e b216 823c
00000030: 474b b23d b9cc 70be 41fc 2c3e 798d a3bd
00000040: 9f8f 3bbe d294 d33c c891 273e 3555 05bd
00000050: ced2 e1bd 6c44 a23c a023 513e a739 7f3c
00000060: 042c 993d e47c cf3b 5abb 0f3d 8b68 9a3e
00000070: 3452 b53c de1f a13d 52c3 34be 0e6d dc3d
00000080: 4c0a 3f3e 70e3 5d3b 0f6b 2a3d 5cbe a9bd
00000090: aa85 0bbe e5c6 b53d b509 95bd dc0e 023e
000000a0: 1a62 31be fb88 1b3e 0eda 273e 6a54 783d
000000b0: e252 f63d 0963 343e e8d5 3d3e de90 debc
000000c0: 1c9a 29bd ebe0 c23d 40f3 91bd 13a1 53be
000000d0: f0c4 1bbe 0b13 9b3e 84a5 fbbd a931 2e3e
000000e0: bb63 5fbd c319 a13e 7f55 8f3c b621 2f3e
000000f0: d356 e23b 0383 913d 0b95 ab3d fbcd 0f3d
00000100: 262b 853e 043e 543c 8ced 34be b9fe 5bba
00000110: c9c3 9b3d 9eee d2bd 581f a93c f8b5 3abc
00000120: 00ae 1bbe 74b0 5c3d 15b9 dcbc aa98 6abe
00000130: bfa1 003e 56a0 633d 2822 1ebc a5b7 6a3e
00000140: 7f38 b0bc 15a4 99bd 34c2 44be be45 0bbe
00000150: 601f 98bd 6c3c 363e 8ea4 5a3d 4f31 b63d
00000160: 34a4 9dbc dfd2 5c3e e20c 5d3d 5841 1ebe
00000170: 5ca5 58be 1907 793d fef9 573d 0b1a 703e
00000180: ae32 e6bd c2ec 733d fb19 3bbe 4918 85be
00000190: 0cd5 4bbe e7c4 3c3e 3f11 813d 3111 80bd
000001a0: 5fb7 ccbd 0ae9 053e 97ab 923e 0859 293e
000001b0: 3ec5 acbd be08 83be b85e 38bd f913 98be
000001c0: 953e 2c3e 5611 d53d 82cf 61bd 17ba ffbd
000001d0: 923a acbd 745d 573d 99a6 833b 3100 903c
000001e0: e751 27be dd07 04be 0b5b 04be d77f 68be
000001f0: d020 c8bd 85bb 283e 7215 1f3e edc9 ffbd
00000200: e2c6 a8bd 6e1c 733e 5660 f5bd 5371 b03d
00000210: abdc d23b 73df 33bd dee5 9e3d ef23 8cbd
00000220: 1630 943e 8654 393c c460 4bbe 7237 a73d
00000230: 979f ec3d 3123 d43d ef2b e1bb e1f1 353e
00000240: 5499 583e 8f42 f43c 2abc 0e3e 1184 6cbe
00000250: d690 9cbd 1d35 a63d 1e7d 90bb 5ab8 acbc
00000260: 89a1 abbd 6237 1c3e 16fd 7d3e 44a8 45be
00000270: 29c7 743e 3b16 1fbe a70c c1bc 8b61 d73d
00000280: e111 4cbd 0536 abbd 2e1b b8bd fb0e 2b3e
00000290: 962d 023e f138 94be 2bb4 2b3e 7cf0 22be
000002a0: 4f2d 8d3d 22cd 263d 76e7 753d a3a2 1b3e
000002b0: 05b3 533d d9ab dbbd 2473 a0bd 51da 4e3e
000002c0: 0778 623e bdd1 ca3d f600 dc3c 4fef 21bd
000002d0: 8801 123e feab c4bd fe72 96bd 971f 5cbe
000002e0: 25ef 4ebc 43dc 863e 251f 3abe 4792 6d3e
000002f0: a4b0 8dbc 2434 db3d 8ea7 d53d 8691 02be
00000300: 5e0c b5bc 0111 70bd 7e7a 533d abc8 ac3d
00000310: 1d74 3c3e 57ca 97bc e484 9b3d 96d8 a8bd
00000320: a5a2 f1bd 78d6 e4bc ddff 11be e940 e2bd
00000330: e760 963c 6334 6cbe 5d77 99be bfa0 c13d
00000340: 4564 5dbd 6620 75bb cd3b 83bc 9e70 573e
00000350: bb12 753d ce07 59bd f5f5 1dbe a997 073c
00000360: 5a4a ab3d 60fd b6bd 2475 9d3d 1536 00bd
00000370: 7a72 aabd 600d 6e3e d2bc 9ebd c7ca 89bc
00000380: 2067 813e e8c4 c63d d536 eabb 01a6 febd
00000390: 0074 f93d 872b 1e3e c656 ee3d 9901 6d3e
000003a0: fd69 863e cd80 c4bd 243e 78be 6b38 99bc
000003b0: 10cf c03d cbbd 533e bc72 8b3c ca31 c03d
000003c0: b4f8 0ebe a444 453e 5951 e8bb e884 96bd
000003d0: 9fc8 26be ad71 553d 0fa4 013d 5665 7abe
000003e0: dc02 53be 6552 01be 6784 68be a248 d33c
000003f0: 55db 543e 8b03 8d3e 482c 0bbe 3e26 353e

sequential_3/model_3/separable_conv2d_5/separable_conv2d/ReadVariableOp_1:0 f4 [64, 64, 1, 1]
0.23802643 -0.04677211 0.050243624 0.14192949 0.09274586 -0.12083981 0.16050433 0.045874868
0.033100624 -0.29206112 -0.054551743 -0.17603962 0.06924877 -0.06867751 -0.11177793 -0.25761318
0.30526146 0.13106278 -0.089532636 0.06788453 -0.35026327 0.07766886 -0.16620654 -0.002580797
-0.003485952 -0.057792604 -0.21651728 0.06730075 0.16797459 -0.06817103 -0.11803796 0.09440827
-0.12581421 -0.08625045 0.06610881 -0.2259607 0.265298 -0.20173547 -0.16866557 -0.45679903
0.20470695 0.036465857 -0.14042895 -0.1662655 -0.081244536 0.35136265 0.11744619 0.116221786
0.067172274 -0.10415059 -0.11914222 0.15776445 -0.1153263 0.17477402 -0.002473665 0.04463638
0.11768515 0.009074646 0.0076971883 -0.17761523 -0.2085618 0.084672414 0.011235331 0.015653182
-0.005824914 0.055014882 0.17937423 -0.034244556 0.16001499 0.0730369 -0.16969682 -0.04186977
-0.2697063 -0.1535506 0.0825519 -0.059155166 -0.122971766 0.28619018 -0.1534497 0.24830711
0.2619457 0.04610325 0.20795804 -0.15785465 0.030815583 0.09297967 -0.050011955 -0.21549205
0.064329036 -0.03305523 -0.14731607 0.19568928 -0.09618152 0.3178314 0.18652049 -0.114304
0.06673006 0.045264404 0.06748649 -0.15325387 0.27516666 -0.0054348414 -0.15983446 -0.20240967
0.033792533 0.31063557 -0.290202 0.104583405 0.06923813 -0.107325055 0.16873549 -0.16230102
0.119941376 -0.13701244 -0.041987486 -0.04197471 0.11402121 0.13545874 -0.033518255 -0.17529924
-0.15718782 0.16445893 -0.11552875 -0.022337109 0.017345559 -0.18473557 0.27819407 0.26736632
0.00028477248 -0.24096183 0.09667775 -0.06972724 -0.07069854 -0.08172696 0.123092644 -0.13374797
-0.027364993 0.08259252 0.04939397 0.18052018 -0.011185859 0.27461746 -0.015194744 -0.14721306
-0.101462275 0.08647191 0.07106425 -0.102019496 -0.035859883 -0.108033024 -0.16757481 0.17965093
0.08475389 0.012220612 0.033007722 -0.19563107 0.13386205 -0.13161042 0.08139636 -0.20058176
-0.039982747 0.15403038 -0.06280794 -0.2622527 -0.030697742 -0.14610785 -0.09555015 0.1293009
-0.053124372 -0.12421384 0.08626258 -0.21547255 -0.099970736 -0.19590513 0.3454091 -0.14422326
-0.1073118 0.3917421 0.00914676 0.101309195 -0.021763343 0.060557935 0.27503905 -0.18092448
-0.03008094 0.10911359 -0.088756256 -0.062038444 0.17407514 -0.16083601 -0.008619246 -0.12329173
-0.28518414 0.09230932 0.1769612 0.27504694 0.046758875 -0.3709498 -0.06559192 -0.10176625
-0.1480877 0.0061509637 -0.18420689 0.10713101 0.041684017 -0.072951265 0.054789025 0.021018751
0.1434893 0.11342885 -0.22512121 -0.07267783 0.09953189 0.2534869 0.003937168 0.24730699
-0.21876091 -0.39215955 0.021648476 -0.041201558 -0.10167888 -0.025578106 0.32534805 -0.14446126
-0.17579709 -0.01822804 0.020833222 -0.11479791 -0.016145423 -0.30969885 0.1895644 -0.014659825
-0.039767686 0.2275212 -0.03745652 -0.05691162 -0.06907995 -0.0012666236 -0.008759075 -0.03723098
-0.012495533 0.10322453 -0.08978436 -0.09313718 0.2143871 0.3148887 0.052801613 0.5081016
0.15811974 0.0037566617 0.19584066 0.16237657 0.025521029 0.13321838 0.18046881 0.064238384
00000000: 33bd 733e 1d94 3fbd 42cc 4d3d f755 113e
00000010: 8bf1 bd3d dd7a f7bd 3f5b 243e 49e7 3b3d
00000020: 8594 073d 0989 95be a671 5fbd bb43 34be
00000030: 4dd2 8d3d cba6 8cbd d4eb e4bd e0e5 83be
00000040: 3b4b 9c3e 5235 063e e35c b7bd 0b07 8b3d
00000050: b555 b3be da10 9f3d 0c32 2abe 9722 29bb
00000060: 9274 64bb f0b7 6cbd b5b6 5dbe fad4 893d
00000070: 8801 2c3e 419d 8bbd e3bd f1bd 2059 c13d
00000080: 71d5 00be 13a4 b0bd 0e64 873d 3e62 67be
00000090: 24d5 873e be93 4ebe abb6 2cbe 90e1 e9be
000000a0: b39e 513e 395d 153d 9bcc 0fbe 8141 2abe
000000b0: 8963 a6bd cee5 b33e a187 f03d b005 ee3d
000000c0: 9e91 893d e84c d5bd d600 f4bd 018d 213e
000000d0: 3230 ecbd f6f7 323e 361d 22bb a3d4 363d
000000e0: e904 f13d d3ad 143c b238 fc3b c4e0 35be
000000f0: 3991 55be bb68 ad3d 6514 383c 1a3b 803c
00000100: ecde bebb 4957 613d e1ad 373e 0544 0cbd
00000110: f8da 233e 5f94 953d 01c5 2dbe a37f 2bbd
00000120: f216 8abe 5e3c 1dbe f810 a93d b04c 72bd
00000130: 9fd8 fbbd 8587 923e eb21 1dbe 3844 7e3e
00000140: bf1d 863e c3d6 3c3d f4f2 543e a6a4 21be
00000150: f670 fc3c 206c be3d 56d9 4cbd f3a9 5cbe
00000160: f1be 833d ec64 07bd 06da 16be c562 483e
00000170: d1fa c4bd ccba a23e 3aff 3e3e 3718 eabd
00000180: c5a9 883d 2b67 393d 5b36 8a3d 95ee 1cbe
00000190: a5e2 8c3e c116 b2bb a5ab 23be 7b44 4fbe
000001a0: 0a6a 0a3d a00b 9f3e 5b95 94be d32f d63d
000001b0: b8cc 8d3d 3dcd dbbd ffc8 2c3e 3d32 26be
000001c0: d3a3 f53d fd4c 0cbe 12fb 2bbd aced 2bbd
000001d0: f483 e93d b2b5 0a3e 704a 09bd a581 33be
000001e0: d8f5 20be ec67 283e 569a ecbd 50fc b6bc
000001f0: 4618 8e3c 522b 3dbe 746f 8e3e 3de4 883e
00000200: 844d 9539 b3be 76be fcfe c53d 28cd 8ebd
00000210: 65ca 90bd 7760 a7bd ff17 fc3d 3af5 08be
00000220: 8d2c e0bc 4426 a93d 5551 4a3d 48da 383e
00000230: e544 37bc a99a 8c3e 60f3 78bc 05bf 16be
00000240: 74cb cfbd 2f18 b13d 228a 913d 99ef d0bd
00000250: d0e1 12bd 6b40 ddbd bb98 2bbe 6af6 373e
00000260: 7393 ad3d f638 483c 1b33 073d 8353 48be
00000270: 2213 093e e2c4 06be 23b3 a63d 4e65 4dbe
00000280: f3c4 23bd 24ba 1d3e 73a1 80bd fc45 86be
00000290: d579 fbbc 4c9d 15be ccaf c3bd 7567 043e
000002a0: f198 59bd d363 febd 6faa b03d d6a4 5cbe
000002b0: 75bd ccbd 5b9b 48be 76d9 b03e 43af 13be
000002c0: 4ac6 dbbd 6c92 c83e 4bdc 153c 327b cf3d
000002d0: 0a49 b2bc 990b 783d ebd1 8c3e 4444 39be
000002e0: 4e6c f6bc f276 df3d d7c5 b5bd 061c 7ebd
000002f0: c140 323e 32b2 24be bd37 0dbc 6080 fcbd
00000300: a803 92be ab0c bd3d 5135 353e f4d2 8c3e
00000310: 3c86 3f3d 22ed bdbe 0e55 86bd d36a d0bd
00000320: 4da4 17be 068e c93b bba0 3cbe 8167 db3d
00000330: dcbc 2a3d 7967 95bd 756a 603d 842f ac3c
00000340: dcee 123e 634d e83d 2d86 66be 1dd8 94bd
00000350: 60d7 cb3d 09c9 813e 5c03 813b 0b3e 7d3e
00000360: dc02 60be 23c9 c8be 2558 b13c f7c2 28bd
00000370: 043d d0bd 2d89 d1bc 0594 a63e a7ed 13be
00000380: 2704 34be f852 95bc 6faa aa3c 2b1b ebbd
00000390: 6843 84bc d990 9ebe 2c1d 423e c32f 70bc
000003a0: 71e3 22bd 51fb 683e 026c 19bd 291c 69bd
000003b0: ca79 8dbd d604 a6ba 3982 0fbc 837f 18bd
000003c0: 10ba 4cbc 6267 d33d dde0 b7bd b5be bebd
000003d0: 4b88 5b3e 1739 a13e 8146 583d f212 023f
000003e0: 24ea 213e 5332 763b 748a 483e 0b46 263e
000003f0: 7a11 d13c 666a 083e d1cc 383e 6a8f 833d

sequential_3/model_3/separable_conv2d_4/separable_conv2d/ReadVariableOp_1:0 f4 [64, 32, 1, 1]
-0.3464923 0.06821033 -0.16953933 0.089685954 0.024638046 -0.020553622 0.31062108 -0.24061416
-0.11629513 0.06297999 0.060379032 0.077022225 0.44223922 0.016635451 -0.105182126 0.07785021
0.020590201 -0.34450048 -0.10933948 -0.03222084 0.0838009 0.108850956 -0.15838866 0.22693402
0.13930328 -0.21908996 -0.27442747 0.09640396 0.18195838 -0.060388956 -0.027319256 0.08163205
0.07098253 0.021741165 -0.042479742 0.09045483 -0.10067935 0.25381076 -0.22032616 0.0492488
0.26725614 0.16347641 0.028862353 0.14319867 -0.1451165 0.36607835 0.10483562 0.030372089
-0.40959156 0.09094868 -0.19606328 -0.1852741 -0.07090517 -0.012246591 -0.29370305 -0.101392664
-0.016997911 0.0012934372 -0.09100885 0.30202848 -0.31568536 0.06474041 -0.09377289 0.18705128
-0.062499315 0.049176533 0.27652892 -0.088656105 -0.11546224 -0.08541698 0.19321252 0.17624356
0.06390079 0.11710322 -0.26583156 -0.08257569 0.07763562 -0.17504132 -0.024665812 -0.03250922
-0.0030557471 0.30922407 0.009745346 -0.24802148 -0.09297797 -0.17150266 -0.11705506 0.12514873
-0.12432097 0.00943508 0.3957175 -0.038838726 0.021227546 -0.25774124 -0.36240852 -0.1660477
-0.03564803 3.0696014e-05 0.128232 0.17370614 -0.24760744 -0.16326529 0.20510598 -0.37378278
-0.18637615 0.106610455 -0.08452139 0.17488974 -0.19871253 -0.09878232 -0.17511816 -0.030895863
0.082588844 -0.21571206 0.05732654 0.054649718 0.048803743 0.099928305 0.2086453 -0.03871575
-0.20932373 0.18406017 -0.24192657 -0.14868514 -0.07395078 0.14604843 -0.09617923 -0.17248288
0.14653553 0.15121657 0.22927584 0.20864058 -0.17428477 -0.10433468 0.11126114 -0.112131886
-0.050406985 0.16326126 -0.0066371993 0.18355076 -0.29097414 -0.28935817 0.079984345 -0.03765964
0.25270087 0.22555357 -0.10670904 0.09862625 -0.2112421 -0.03678139 0.08661179 0.3381637
0.15164042 -0.025823632 0.16847257 0.2919094 0.17400551 0.17825378 0.19472857 0.18689093
-0.25829706 0.25075725 0.119419284 0.15308526 -0.14897569 -0.09911084 -0.053404085 0.038756423
0.09478271 0.15089583 -0.0021166464 0.30962515 -0.13410462 0.009492616 -0.11850418 0.057227068
0.41881442 0.16105807 0.37658137 -0.0009777083 -0.3203845 -0.04425475 0.22251053 -0.0009979691
-0.22925143 0.0018879923 0.04099334 0.15215428 0.19142273 0.007370216 -0.020383732 -0.09513098
-0.23950441 0.3566421 0.10219311 -0.18948358 -0.16262747 -0.17919862 -0.1885985 0.2229096
-0.19202495 -0.11821133 0.004744691 0.02386673 -0.1490088 -0.15136169 -0.23757032 0.06878173
-0.13210519 0.11637482 -0.03914793 -0.27395988 0.04719155 0.06343731 0.099071 -0.19561066
-0.18103637 -0.108335 -0.11167944 -0.074049085 0.042937007 -0.33415276 -0.099993475 0.1247398
0.076189026 0.4905444 -0.10453175 -0.19693027 -0.2733655 -0.1685611 -0.092888646 -0.12573062
-0.0757989 0.1271039 -0.17805979 -0.080427766 -0.23327339 -0.079929404 0.18790737 -0.25690535
0.13345702 -0.037039097 0.13637209 0.1856209 -0.1046204 0.03065515 0.19692203 -0.082780875
-0.10169202 -0.1191796 -0.051045027 -0.15599033 0.1775637 -0.2284374 0.19533092 0.32381573
00000000: 7067 b1be dcb1 8b3d b89b 2dbe 45ad b73d
00000010: bad5 c93c 1260 a8bc ba09 9f3e 8f63 76be
00000020: 242c eebd a7fb 803d 0150 773d d4bd 9d3d
00000030: 2e6d e23e 1247 883c ba69 d7bd ee6f 9f3d
00000040: c8ac a83c 5e62 b0be 61ed dfbd 00fa 03bd
00000050: ce9f ab3d 40ed de3d a330 22be 6461 683e
00000060: 85a5 0e3e 1e59 60be c281 8cbe 706f c53d
00000070: 4c53 3a3e 695a 77bd a2cc dfbc b42e a73d
00000080: 4a5f 913d 871a b23c 3dff 2dbd 6240 b93d
00000090: fa30 cebd 7cf3 813e 2e9d 61be 1cb9 493d
000000a0: ccd5 883e 5c66 273e be70 ec3c aca2 123e
000000b0: 6b99 14be 9f6e bb3e 0fb4 d63d e3ce f83c
000000c0: fcb5 d1be 4d43 ba3d d0c4 48be 7eb8 3dbe
000000d0: bb36 91bd eda5 48bc 3f60 96be f5a6 cfbd
000000e0: 343f 8bbc 8d88 a93a d962 babd 7aa3 9a3e
000000f0: 83a1 a1be 9f96 843d 000c c0bd 5f8a 3f3e
00000100: 48ff 7fbd 556d 493d 3395 8d3e 5591 b5bd
00000110: 7877 ecbd 19ef aebd 81d9 453e 3179 343e
00000120: 6bde 823d d0d3 ef3d 131b 88be 711d a9bd
00000130: 6dff 9e3d 083e 33be f50f cabc 6328 05bd
00000140: ee42 48bb 9e52 9e3e f2aa 1f3c 58f9 7dbe
00000150: 3c6b bebd 659e 2fbe 90ba efbd fd26 003e
00000160: fe9b febd 9895 1a3c 7c9b ca3e 5b15 1fbd
00000170: 64e5 ad3c a9f6 83be 9c8d b9be 6908 2abe
00000180: ab03 12bd 98bf 0038 404f 033e 06e0 313e
00000190: ce8c 7dbe 042f 27be 4d07 523e 7560 bfbe
000001a0: 64d9 3ebe 9556 da3d 8d19 adbd 4c16 333e
000001b0: 4c7b 4bbe 634e cabd 2d52 33be 5219 fdbc
000001c0: 5724 a93d 9fe3 5cbe 3ccf 6a3d 62d8 5f3d
000001d0: 6fe6 473d 36a7 cc3d 1da7 553e 6894 1ebd
000001e0: f658 56be 457a 3c3e 99bb 77be eb40 18be
000001f0: 8273 97bd b88d 153e 9ef9 c4bd 5a9f 30be
00000200: 690d 163e 84d8 1a3e 49c7 6a3e e0a5 553e
00000210: b577 32be 6cad d5bd e1dc e33d 67a5 e5bd
00000220: 8e77 4ebd f62d 273e dd7c d9bb bbf4 3b3e
00000230: 90fa 94be c126 94be d5ce a33d ff40 1abd
00000240: 0262 813e 84f7 663e 458a dabd 8ffc c93d
00000250: d94f 58be 15a8 16bd 8661 b13d cb23 ad3e
00000260: a047 1b3e 158c d3bc 1384 2c3e 2675 953e
00000270: 802e 323e 2988 363e ed66 473e 5660 3f3e
00000280: 833f 84be 4163 803e 1992 f43d 62c2 1c3e
00000290: 158d 18be a0fa cabd 3ebe 5abd 0ebf 1e3d
000002a0: 701d c23d 7084 1a3e 6fb7 0abb 3087 9e3e
000002b0: b952 09be eb86 1b3c 52b2 f2bd ee66 6a3d
000002c0: d86e d63e 68ec 243e 46cf c03e 7226 80ba
000002d0: 7009 a4be 7844 35bd cdd9 633e 49ce 82ba
000002e0: e3c0 6abe 8276 f73a a2e8 273d 55ce 1b3e
000002f0: 5204 443e da81 f13b c9fb a6bc 08d4 c2bd
00000300: a540 75be cb99 b63e 9f4a d13d fc07 42be
00000310: d187 26be d87f 37be f71f 41be 6a42 643e
00000320: 30a2 44be c818 f2bd 5a79 9b3b 2984 c33c
00000330: c395 18be 8ffe 1abe a245 73be 70dd 8c3d
00000340: 9546 07be ec55 ee3d 9459 20bd 7844 8cbe
00000350: ed4b 413d 6ceb 813d bde5 ca3d 294e 48be
00000360: 9961 39be bede ddbd 31b8 e4bd 0ca7 97bd
00000370: b7de 2f3d 1216 abbe 61c9 ccbd 9577 ff3d
00000380: fe08 9c3d a328 fb3e be14 d6bd 17a8 49be
00000390: 90f6 8bbe 489b 2cbe 673c bebd 87bf 00be
000003a0: 743c 9bbd 8627 023e 4e55 36be 50b7 a4bd
000003b0: 38df 6ebe 07b2 a3bd ca6a 403e 1989 83be
000003c0: f5a8 083e 4fb6 17bd 20a5 0b3e 6813 3e3e
000003d0: 3843 d6bd 8220 fb3c eea5 493e 0589 a9bd
000003e0: e843 d0bd 6f14 f4bd 9714 51bd eebb 1fbe
000003f0: 42d3 353e 7eeb 69be d404 483e 2dcb a53e

sequential_3/model_3/separable_conv2d_3/separable_conv2d/ReadVariableOp_1:0 f4 [32, 32, 1, 1]
0.12936236 -0.17580387 0.38954473 -0.2295239 0.22238332 0.3568849 0.24475646 0.011635288
0.14785843 -0.057247795 0.22272523 0.1564274 -0.10965123 -0.07885503 0.32047826 -0.34968793
-0.023403656 -0.03773415 -0.07938 0.18848445 -0.048328213 0.15390255 0.25940108 -0.21199255
-0.0042285607 -0.022541782 0.053660363 0.22657074 -0.023962786 -0.42634454 0.04565839 0.20682614
0.1562455 -0.31985188 -0.119074166 0.15415281 0.21010764 0.19381626 -0.038901184 -0.06652182
0.048122987 -0.06870378 0.3486697 0.10342536 -0.14510664 0.2060266 0.1586726 -0.17391406
-0.20622963 0.09747724 0.27606604 0.14553285 -0.20949683 -0.20457979 -0.18687706 0.091713846
-0.15983865 0.23937838 -0.22795227 0.1190941 -0.04147108 -0.20927863 0.091451585 -0.44679728
-0.100501664 -0.42980382 -0.11736543 -0.021108199 0.16120291 -0.2485586 -0.0554351 0.17040408
-0.12612109 0.15419339 -0.0824522 0.1679876 -0.073399134 -0.39986882 0.19735157 0.19873051
0.14541149 -0.02167852 -0.12667242 0.19330013 -0.03296084 0.018457096 -0.45219687 0.3148916
0.109182715 0.1127158 -0.061682485 -0.31159246 0.13867591 -0.07224793 0.10182528 0.25277823
-0.13964623 -0.09169832 -0.10396212 0.09230836 -0.06417367 0.0757134 0.13775924 0.00791391
-0.17682858 0.25508928 -0.05452118 0.009154084 0.12812847 -0.10558734 0.07137215 0.068304606
0.09333593 -0.0829324 0.23911844 0.22394508 0.18448192 0.31040284 0.11080057 -0.19412951
0.5341158 0.14949474 -0.43441728 -0.023963774 -0.23565577 0.005488884 0.021082245 0.20481174
-0.029239208 0.4008905 -0.07991844 -0.11686052 -0.06091415 0.035490204 0.20661493 -0.2828962
-0.091976166 0.0022067586 -0.3670722 0.072399415 0.16723427 0.10139337 0.021713251 -0.06969043
0.4288934 0.16176133 0.03893353 0.19305304 0.20954461 -0.17986508 0.024063919 0.08677416
0.10691329 0.030340347 -0.10637291 -0.13153505 0.07927721 0.10378982 -0.054221854 -0.19660646
0.24406466 0.26741496 -0.083137095 -0.14201367 0.054093465 0.20071568 0.019841386 0.008161155
0.12752981 0.40057805 -0.037277468 -0.08768527 0.067026235 -0.17167553 0.2260358 -0.21953034
0.05284229 0.28369722 -0.26296186 -0.36031124 0.2307695 -0.080090925 0.3217442 -0.21754181
0.27561855 0.18735342 0.008250142 -0.18134344 -0.10927977 -0.1778011 0.2673611 0.20496406
-0.10449687 -0.30985418 -0.074076146 -0.035966016 -0.25668496 0.14262165 0.37673753 0.012693211
-0.098963656 0.055476144 0.2740911 -0.19788413 0.095964864 0.03290309 0.226723 -0.11558396
0.10285314 0.263675 -0.16290374 -0.22417219 -0.29502094 0.15494557 0.34239432 -0.2937841
0.012837091 -0.035897367 0.07887213 0.10523031 0.23024547 -0.22165535 0.16226609 0.18537204
-0.06566493 0.038070377 -0.14321692 0.02885932 0.077128716 0.32177913 0.010614843 0.04491446
-0.4483327 -0.1992414 0.299654 -0.079744756 -0.08866661 -0.00012596666 0.17330343 -0.38660204
-0.3961707 -0.2737973 -0.09260142 0.035496447 -0.11752075 -0.027419211 -0.211096 -0.24924651
0.0908468 0.16343196 0.050408658 -0.3132651 0.016566103 -0.2589525 -0.15615642 -0.15149695
00000000: 9177 043e ee05 34be 6872 c73e 5008 6bbe
00000010: 74b8 633e 9eb9 b63e 70a1 7a3e efa1 3e3c
00000020: 3368 173e aa7c 6abd 1512 643e 812e 203e
00000030: d390 e0bd bf7e a1bd ba15 a43e 4c0a b3be
00000040: 06b9 bfbc 208f 1abd fb91 a2bd 1102 413e
00000050: cef3 45bd a198 1d3e 38d0 843e 9314 59be
00000060: bd8f 8abb 8ba9 b8bc f8ca 5b3d 2902 683e
00000070: 9b4d c4bc d549 dabe 4b04 3b3d 3bca 533e
00000080: d2fe 1f3e a0c3 a3be 28dd f3bd 3cda 1d3e
00000090: 7526 573e c577 463e d956 1fbd 983c 88bd
000000a0: 9c1c 453d 91b4 8cbd d684 b23e add0 d33d
000000b0: d696 14be a3f8 523e 127b 223e 8716 32be
000000c0: dc2d 53be 26a2 c73d 8758 8d3e 9006 153e
000000d0: 5686 56be 5d7d 51be b35c 3fbe 78d4 bb3d
000000e0: beac 23be 9b1f 753e 526c 69be 9ce7 f33d
000000f0: 94dd 29bd 234d 56be f84a bb3d 9dc2 e4be
00000100: d1d3 cdbd 3f0f dcbe 495d f0bd 1aeb acbc
00000110: 6012 253e 2586 7ebe ea0f 63bd 687e 2e3e
00000120: e325 01be dfe4 1d3e b3dc a8bd f104 2c3e
00000130: 4952 96bd 9bbb ccbe 8816 4a3e 0380 4b3e
00000140: c0e6 143e 2797 b1bc 6ab6 01be 78f0 453e
00000150: f201 07bd 5633 973c 5986 e7be 7939 a13e
00000160: 309b df3d 8bd7 e63d c6a6 7cbd 0c89 9fbe
00000170: 0f01 0e3e b9f6 93bd c689 d03d 266c 813e
00000180: 6cff 0ebe 54cc bbbd 18ea d4bd 2a0c bd3d
00000190: 7c6d 83bd a10f 9b3d c210 0d3e 58a9 013c
000001a0: 8d12 35be 109b 823e 9a51 5fbd 03fb 153c
000001b0: 1c34 033e 2d3e d8bd 902b 923d 49e3 8b3d
000001c0: e826 bf3d 76d8 a9bd 77db 743e dc51 653e
000001d0: d4e8 3c3e 1fed 9e3e 69eb e23d e3c9 46be
000001e0: d0bb 083f 2615 193e f16b debe ad4f c4bc
000001f0: bf4f 71be 19dc b33b acb4 ac3c 2bba 513e
00000200: 1087 efbc 8541 cd3e 47ac a3bd 9154 efbd
00000210: 1e81 79bd 2d5e 113d dd92 533e c5d7 90be
00000220: 005e bcbd 449f 103b e3f0 bbbe 2546 943d
00000230: 763f 2b3e 54a7 cf3d fddf b13c dbb9 8ebd
00000240: ea97 db3e c3a4 253e c478 1f3d b2af 453e
00000250: dd92 563e 8d2e 38be b221 c53c a7b6 b13d
00000260: 5bf5 da3d 528c f83c 0ada d9bd 20b1 06be
00000270: 175c a23d c28f d43d bc17 5ebd 3453 49be
00000280: 16ec 793e 9dea 883e c843 aabd 086c 11be
00000290: 1c91 5d3d 6988 4d3e 678a a23c 5db6 053c
000002a0: 2d97 023e 9118 cd3e 42b0 18bd 5694 b3bd
000002b0: 0d45 893d b6cb 2fbe ee75 673e 90cc 60be
000002c0: 2871 583d c340 913e f0a2 86be b77a b8be
000002d0: d74e 6c3e b606 a4bd a8bb a43e 48c3 5ebe
000002e0: e01d 8d3e 93d9 3f3e 9b2b 073c 18b2 39be
000002f0: 12ce dfbd 7e11 36be 8ee3 883e 19e2 513e
00000300: 7402 d6bd 35a5 9ebe 3cb5 97bd 1a51 13bd
00000310: 366c 83be 690b 123e bee3 c03e 30f7 4f3c
00000320: 75ad cabd f43a 633d ab55 8c3e 23a2 4abe
00000330: 3a89 c43d 64c5 063d 132a 683e 49b7 ecbd
00000340: aba4 d23d 6900 873e 3dd0 26be 658d 65be
00000350: fc0c 97be 0daa 1e3e 4f4e af3e df6a 96be
00000360: aa52 523c 1e09 13bd b687 a13d fd82 d73d
00000370: 78c5 6b3e 9ff9 62be 1529 263e 2bd2 3d3e
00000380: 567b 86bd afef 1b3d 75a7 12be 616a ec3c
00000390: a9f5 9d3d 3cc0 a43e e1e9 2d3c 3af8 373d
000003a0: dd8b e5be f005 4cbe 406c 993e 3851 a3bd
000003b0: d796 b5bd eb15 04b9 7476 313e b4f0 c5be
000003c0: e3d6 cabe 292f 8cbe d0a5 bdbd b964 113d
000003d0: b8ae f0bd 419e e0bc 8d29 58be 7a3a 7fbe
000003e0: e30d ba3d b55a 273e 4f79 4e3d 4864 a0be
000003f0: a3b5 873c 6c95 84be 78e7 1fbe 0422 1bbe

sequential_3/model_3/separable_conv2d_2/separable_conv2d/ReadVariableOp_1:0 f4 [32, 16, 1, 1]
0.1442526 -0.24028471 0.2285381 0.223148 0.031495083 -0.29872027 -0.16810967 0.28669223
-0.18903455 0.1526278 0.27585512 0.3922334 0.23105648 0.14280915 -0.27549163 0.20709717
-0.108080074 -0.15497346 0.412938 0.043496057 0.18379094 -0.098749235 -0.3464588 -0.6456541
-0.10159797 0.1927541 0.22795731 0.21254185 -0.2686885 0.0557104 -0.23402348 -0.22586615
-0.30319 0.3191007 0.2827378 -0.4388576 0.23874654 -0.2898817 -0.00804496 -0.041667804
0.019511882 -0.26579827 -0.030221237 0.15496774 -0.27436128 0.068848066 -0.23092157 -0.075803675
0.06490575 -0.46452996 0.25088587 -0.28428409 0.041449763 0.04301519 -0.30838662 -0.13118109
-0.027835278 0.15189631 0.07348096 -0.0764404 -0.06664906 0.11794161 -0.105157785 -0.14419797
-0.18459857 -0.32984865 -0.03200909 0.086927034 -0.045140587 -0.105081104 0.24056599 0.28859267
0.003592971 -0.13684739 -0.13228323 -0.4573368 -0.41595683 0.21460147 0.33180755 -0.015821077
0.33040652 -0.08253824 -0.058078848 -0.298786 -0.13860488 0.20663582 0.06726039 0.32818374
0.22804669 -0.1795707 0.18003848 0.36274064 0.33141494 -0.33951205 0.018537039 0.21148825
0.548834 0.0699978 0.045008734 0.38251644 0.20452906 0.027567841 -0.077384666 -0.26512784
-0.20315935 0.033442304 0.058551297 -0.3234798 0.046554867 -0.26647806 0.34854275 0.25057656
0.1467834 0.13729511 -0.042665683 -0.2823999 0.063696876 0.20989417 0.2569271 -0.15635782
-0.2327247 0.44787815 -0.03527372 0.07972584 -0.42297158 -0.40022668 -0.23086955 -0.21097271
0.2569999 0.30591372 -0.18112369 -0.0362434 -0.2258066 0.41580418 0.108562395 -0.08185977
0.105992116 -0.2972635 -0.0042732516 0.066129446 0.14619526 -0.1926477 0.38975206 0.32214645
-0.1665242 -0.45261058 0.2377133 -0.14890653 -0.13030191 0.296479 0.15562503 -0.0998866
-0.21012942 0.14118126 -0.16782857 -0.06798908 -0.12844919 0.19707248 0.16685943 0.20179768
-0.16833144 0.018501285 0.012491528 -0.3247984 -0.12587303 0.22185306 -0.39008632 -0.13740133
-0.19616237 -0.36132565 -0.23068812 0.32949722 -0.2521614 0.15749002 0.04879057 0.050816268
0.15186284 0.1422182 -0.13609208 0.30140346 -0.4352196 -0.25346798 0.31523195 -0.088691324
0.2009704 -0.056768093 -0.20227444 -0.17293696 -0.2516737 -0.19263607 -0.38518563 -0.08091998
0.47241864 -0.1164291 -0.14550333 0.047470022 0.24364462 -0.09908908 -0.10154577 0.091496505
-0.49317798 0.4164252 -0.12683597 0.13270167 0.20514168 -0.031109815 -0.03496493 -0.04612391
-0.2504748 -0.2982707 -0.04733605 -0.064491495 -0.018786723 -0.10338334 -0.07699599 0.36733583
0.26370952 -0.025512908 0.0950661 0.16659792 0.33507657 0.019053092 -0.2505901 -0.37505978
-0.09706369 -0.10133057 -0.37219143 0.010989734 -0.0639584 -0.16297747 -0.39315015 0.05685161
0.22702825 0.22880898 -0.028127383 -0.12522149 0.22381014 0.15300672 0.041364856 0.1529401
0.12713805 0.09810425 0.07062692 0.1125662 -0.29895243 0.050703764 0.15172468 -0.017785195
-0.17901562 0.074206956 0.53560704 0.29469335 0.20670708 -0.52480614 0.25505608 -0.15883194
00000000: f4b6 133e 320d 76be e405 6a3e e980 643e
00000010: fd00 013d ddf1 98be f124 2cbe 53c9 923e
00000020: 4692 41be 764a 1c3e e23c 8d3e d1d2 c83e
00000030: 129a 6c3e 903c 123e 3d0d 8dbe 4811 543e
00000040: 1659 ddbd 5db1 1ebe 9c6c d33e ec28 323d
00000050: b133 3c3e 0a3d cabd 0c63 b1be 9649 25bf
00000060: 9912 d0bd 5561 453e a46d 693e 92a4 593e
00000070: 8a91 89be 9730 643d daa3 6fbe 7549 67be
00000080: b83b 9bbe 2b61 a33e 02c3 903e f1b1 e0be
00000090: f979 743e 606b 94be 02cf 03bc dcab 2abd
000000a0: 62d7 9f3c b616 88be 8792 f7bc ddaf 1e3e
000000b0: 1579 8cbe 3700 8d3d b476 6cbe f53e 9bbd
000000c0: 4eed 843d dfd6 edbe 1d74 803e af8d 91be
000000d0: 3ac7 293d b230 303d dae4 9dbe 5654 06be
000000e0: cf06 e4bc b58a 1b3e 307d 963d c98c 9cbd
000000f0: 4d7f 88bd 5f8b f13d f75c d7bd a2a8 13be
00000100: 6807 3dbe ece1 a8be f71b 03bd cd06 b23d
00000110: 56e5 38bd c334 d7bd ee56 763e 6bc2 933e
00000120: 0d78 6b3b b921 0cbe 4175 07be 0d28 eabe
00000130: 4bf8 d4be 7dc0 5b3e aee2 a93e 349b 81bc
00000140: 0b2b a93e cf09 a9bd 16e4 6dbd 7bfa 98be
00000150: 70ee 0dbe 5798 533e d1bf 893d b307 a83e
00000160: 1285 693e 62e1 37be 025c 383e 24b9 b93e
00000170: 38af a93e 86d4 adbe fdda 973c 6090 583e
00000180: 6380 0c3f 025b 8f3d 145b 383d 32d9 c33e
00000190: 1170 513e f4d5 e13c da7b 9ebd d6be 87be
000001a0: 0109 50be ccfa 083d 7cd3 6f3d 259f a5be
000001b0: 51b0 3e3d d06f 88be 3274 b23e 924b 803e
000001c0: 634e 163e 1797 0c3e 36c2 2ebd b896 90be
000001d0: 8273 823d 7fee 563e f38b 833e 441c 20be
000001e0: 624f 6ebe 4950 e53e 2d7b 10bd 4d47 a33d
000001f0: bb8f d8be 83ea ccbe 1169 6cbe 3b09 58be
00000200: 7e95 833e b9a0 9c3e 7d78 39be f673 14bd
00000210: d839 67be 49e4 d43e f655 de3d 18a6 a7bd
00000220: 6512 d93d ec32 98be a206 8cbb e06e 873d
00000230: 36b4 153e 7045 45be 958d c73e 61f0 a43e
00000240: 5285 2abe 93bc e7be 1e6b 733e f47a 18be
00000250: dd6d 05be 18cc 973e 2b5c 1f3e 5991 ccbd
00000260: 2b2c 57be d291 103e 41db 2bbe dc3d 8bbd
00000270: 2f88 03be 5ecd 493e 33dd 2a3e 0da4 4e3e
00000280: 145f 2cbe 0290 973c 44a9 4c3c fa4b a6be
00000290: dce4 00be 732d 633e 65b9 c7be efb2 0cbe
000002a0: cade 48be adff b8be 8239 6cbe dcb3 a83e
000002b0: 4d1b 81be 1045 213e 9fd8 473d b824 503d
000002c0: ef81 1b3e a6a1 113e b95b 0bbe 8e51 9a3e
000002d0: 1ad5 debe 8ec6 81be 1566 a13e cca3 b5bd
000002e0: 2fcb 4d3e a985 68bd 0821 4fbe 6316 31be
000002f0: 60db 80be 6442 45be 0d37 c5be 60b9 a5bd
00000300: dbe0 f13e 6172 eebd d3fe 14be ed6f 423d
00000310: fa7d 793e 37ef cabd 3bf7 cfbd 8562 bb3d
00000320: d381 fcbe af35 d53e 4ae1 01be f2e2 073e
00000330: a910 523e 03da febc 6337 0fbd 6dec 3cbd
00000340: 3c3e 80be f0b6 98be 72e3 41bd 1e14 84bd
00000350: 9de6 99bc a5ba d3bd 13b0 9dbd 7113 bc3e
00000360: ef04 873e 7200 d1bc 04b2 c23d a598 2a3e
00000370: 288f ab3e 3b15 9c3c 584d 80be d607 c0be
00000380: 54c9 c6bd 6786 cfbd e08f bebe 490e 343c
00000390: 9ffc 82bd 91e3 26be fa4a c9be 3cdd 683d
000003a0: 187a 683e e74c 6a3e 666b e6bc 103a 00be
000003b0: 7c2e 653e cbad 1c3e 326e 293d 549c 1c3e
000003c0: 7a30 023e e2ea c83d d9a4 903d 1c89 e63d
000003d0: 4b10 99be c0ae 4f3d b75d 1b3e 42b2 91bc
000003e0: df4f 37be d1f9 973d 8b1d 093f 0ce2 963e
000003f0: 05ab 533e b259 06bf b696 823e d7a4 22be
