Assets/MoodMeBarracuda/Networks/emotions_sad2.onnx (onnx, 802301 bytes, 46 tensors)

Conv_sequential_4/model_4/batch_normalization/FusedBatchNormV3:0.weight f4 [16, 1, 3, 3]
0	0x3fad7f33	1.3554443
1	0x3e6b9687	0.2300664
2	0xbffc3a13	-1.9705223
3	0xbecbbdac	-0.39793146
4	0x3ecfb314	0.40566313
5	0xc0153d0f	-2.3318517
6	0x4015def8	2.341734
7	0xbf4ab6af	-0.79185003
8	0x3f8b79d0	1.0896549
9	0x2f497508	1.8322421e-10
10	0x300055db	4.6688137e-10
11	0xaf89d985	-2.5074712e-10
12	0x2f46f1ef	1.8093947e-10
13	0x2f936d33	2.6816735e-10
14	0xaf7f3686	-2.3211486e-10
15	0xaf2c9260	-1.5695312e-10
16	0xae2fe5de	-3.9994556e-11
17	0xb0304982	-6.413289e-10
18	0xbaebc449	-0.0017987575
19	0xbaa6cb90	-0.0012725461
20	0x3996ccb2	0.0002876274
21	0xba556d12	-0.0008141558
22	0x3a0fa2e7	0.00054792914
23	0x395073fe	0.00019879636
24	0xb8175a7b	-3.6085472e-05
25	0x3ab32526	0.0013667687
26	0x39e2c53e	0.00043253036
27	0xba8ded87	-0.0010828235
28	0x39d055cf	0.00039736784
29	0xb92aa3cf	-0.00016273487
30	0x3906717a	0.00012821509
31	0x3a8ae24b	0.0010596005
32	0x3aebe64d	0.0017997712
33	0xbbd2718a	-0.0064222263
34	0xba2b33a1	-0.00065308256
35	0x3a2d5213	0.0006611656
36	0x3c5a53b4	0.01332562
37	0x39403b6e	0.00018332686
38	0xbbebf067	-0.007200289
39	0x3b945c4e	0.004527605
40	0x3adfbd13	0.0017069898
41	0xbbc956a0	-0.0061443597
42	0x3bd51f43	0.006503971
43	0xbc03a323	-0.0080345
44	0xbc95dbd1	-0.018293293
45	0x3ff5e85c	1.9211535
46	0xbfe04973	-1.7522415
47	0x3fd54da1	1.6664315
48	0xc0892b4b	-4.286535
49	0xc0b870a7	-5.7637515
50	0x404fb9c6	3.2457137
51	0x40916a72	4.544244
52	0x4012094b	2.2818172
53	0xbfa13504	-1.2594304
54	0xbd7071d0	-0.05870229
55	0xbe7f4bb0	-0.24931216
56	0x3f6377fa	0.88854945
57	0x3f076eb4	0.52903295
58	0xc0035b89	-2.0524619
59	0x3f11e4d3	0.56989783
60	0x3d672058	0.05642733
61	0xbe01ec4d	-0.12687798
62	0x3f550a3a	0.8321873
63	0xbf01e46c	-0.5073917
64	0xbe1c1cf7	-0.15245424
65	0xbebad535	-0.3649079
66	0xbeb02208	-0.34400964
67	0x3d9280c4	0.07153466
68	0xbc80a698	-0.015704438
69	0xbea191d9	-0.31556585
70	0x3f15ff62	0.5859281
71	0x3f421e89	0.7582784
72	0x403e5e7b	2.9745166
73	0x401fef1d	2.4989693
74	0xbd368643	-0.044561636
75	0xbf8d272d	-1.102758
76	0x3f00f895	0.50379306
77	0xbfbc6bd1	-1.4720403
78	0xc0445533	-3.0677001
79	0xbfed098a	-1.8518536
80	0x3fa8704d	1.3159271
81	0xb63f5715	-2.8511906e-06
82	0xb54757c7	-7.426101e-07
83	0xb49f52ef	-2.96764e-07
84	0xb6e37740	-6.7790097e-06
85	0x36b1493a	5.2835358e-06
86	0x3602cb8f	1.9489996e-06
87	0xb5ba56f9	-1.3883392e-06
88	0x360ac252	2.0676712e-06
89	0x35e0bdfd	1.6744594e-06
90	0xbe187d80	-0.14891624
91	0x3f46e4cd	0.7769287
92	0x3e71d82e	0.23617622
93	0xbf94abf1	-1.1614972
94	0xbf0d41a7	-0.551783
95	0xbe946149	-0.28980473
96	0xbf74de74	-0.95651937
97	0xbf0e017d	-0.5547102
98	0xbe97bf06	-0.29637927
99	0xbfd17f9b	-1.6367067
100	0x3f1d96bb	0.6155812
101	0x3fd12920	1.6340675
102	0xbfd7ad66	-1.6849792
103	0x3e1583d1	0.14601065
104	0x3fc20340	1.5157242
105	0xbf2fc813	-0.68664664
106	0xbf70d916	-0.94081247
107	0x3f7341d3	0.95022315
108	0xbed4f5d8	-0.41593814
109	0x3d443b81	0.04790831
110	0xbfd05158	-1.6274824
111	0xc072a17f	-3.791107
112	0x3fb5aa2d	1.4192559
113	0xbfe33c58	-1.775279
114	0x3feadf7d	1.8349453
115	0x408ce3b0	4.402794
116	0xbef4d636	-0.4781968
117	0xbf0f7cd1	-0.5604983
118	0x3f16365f	0.58676714
119	0xbd659748	-0.056052476
120	0x3ed7f458	0.42178607
121	0x3f061b26	0.52385175
122	0xbf90e445	-1.1319662
123	0x3eca3861	0.3949614
124	0x3ee85211	0.45375112
125	0xbf9ecda8	-1.2406511
126	0xbec1f552	-0.37882477
127	0xbeb63732	-0.35588986
128	0x3e886807	0.26641867
129	0x3f93dad1	1.1551152
130	0x3f552ed0	0.83274555
131	0xbeaf7359	-0.3426769
132	0x3f7408ff	0.95326227
133	0x3dfd7760	0.123762846
134	0xbef87545	-0.4852697
135	0x4063943f	3.5559232
136	0x3fed4a9c	1.8538394
137	0x3fb5cf5f	1.420391
138	0xbf656df7	-0.8962092
139	0xc081f409	-4.0610394
140	0xc015706b	-2.3349864
141	0x403bb79f	2.9330823
142	0xc0127f5f	-2.289024
143	0xbe9eee89	-0.31041363

Conv_sequential_4/model_4/batch_normalization/FusedBatchNormV3:0.bias f4 [16]
0	0x3e9a1a0c	0.30097997
1	0xbe239639	-0.15975274
2	0xbe9a7b69	-0.3017228
3	0xbe9f9c34	-0.3117386
4	0xbe830976	-0.25593156
5	0x3ec47a94	0.3837477
6	0x3d9b9d86	0.075984046
7	0xbde7e1ee	-0.113223895
8	0x3ecfa1be	0.40553087
9	0xbe91d87d	-0.2848548
10	0x3f9fb6b6	1.2477634
11	0x3e8deea1	0.27721122
12	0x3f2855d1	0.65755945
13	0x3e19535a	0.14973202
14	0xbf66c97c	-0.9015119
15	0x3edecb8c	0.4351467

Conv_sequential_4/model_4/batch_normalization_1/FusedBatchNormV3:0.weight f4 [32, 16, 3, 3]
0	0xbe4ab472	-0.19795397
1	0xbd9cfe93	-0.07665744
2	0xbca269e9	-0.019825893
3	0xbe0ec8fe	-0.1394386
4	0xbda2fe49	-0.07958657
5	0xbd9095a2	-0.0705979
6	0xbc15537d	-0.009114143
7	0x3b45dba5	0.0030190733
8	0xbda066ac	-0.07832083
9	0x09400959	2.3115555e-33
10	0x87a82c4f	-2.5303873e-34
11	0x0967e84e	2.7914843e-33
12	0x07df1789	3.3567143e-34
13	0x09c0f01b	4.6448113e-33
14	0x89ec6e9e	-5.6918957e-33
15	0x09bff568	4.6212356e-33
16	0x09475109	2.3991856e-33
17	0x0804754d	3.986019e-34
18	0x0d3915de	5.703385e-31
19	0x8d328986	-5.5016023e-31
20	0x8d36b7f2	-5.6304496e-31
21	0x0d39743b	5.7147434e-31
22	0x0d33b30c	5.5374153e-31
23	0x8d376599	-5.6513523e-31
24	0x8d3a0ab1	-5.7328544e-31
25	0x0d381db2	5.673512e-31
26	0x8d362f5e	-5.6140096e-31
27	0x180b4c2f	1.8003792e-24
28	0x9abb9ab9	-7.7591355e-23
29	0x9a041c23	-2.731969e-23
30	0x13af7761	4.4293927e-27
31	0x95e16edd	-9.105169e-26
32	0x167011f6	1.9392713e-25
33	0x1048d7bd	3.9609244e-29
34	0x120b2f3e	4.3918897e-28
35	0x136e4b09	3.0076818e-27
36	0x248c8eca	6.0957216e-17
37	0xa606c07c	-4.6751454e-16
38	0x253ccf5a	1.6376654e-16
39	0xa57f8936	-2.2164213e-16
40	0xa6ce0b4c	-1.4297183e-15
41	0xa437e398	-3.987458e-17
42	0xa7ebd89e	-6.546046e-15
43	0x2637ac14	6.372409e-16
44	0xa3316944	-9.61748e-18
45	0xbc01fd44	-0.007933918
46	0xbe173863	-0.14767604
47	0x3dbd012e	0.09228741
48	0xbcef4360	-0.029206932
49	0xbdac3bee	-0.08409868
50	0xbdec0cab	-0.11525854
51	0x3d5f0a08	0.054452926
52	0xbe0e2ee3	-0.13885073
53	0xbd0a99f1	-0.033838216
54	0xbc862ecd	-0.016379738
55	0xbd672a6a	-0.056436934
56	0xba55b7e5	-0.00081527076
57	0xbc93c756	-0.018039387
58	0xbd8eead7	-0.06978386
59	0xbd3c52b2	-0.045977302
60	0xbd18f431	-0.037342254
61	0xbc878644	-0.016543515
62	0xbcb9d76d	-0.02268573
63	0xbd194843	-0.03742243
64	0xbd29463d	-0.04132675
65	0xbd65b168	-0.05607739
66	0xbaa3aaad	-0.0012486778
67	0x3ab9053e	0.0014115942
68	0xbc2c4c2c	-0.010516208
69	0xbcc45032	-0.023964021
70	0xbbabe14f	-0.0052453647
71	0x3b93b682	0.0045078406
72	0x3d461d0d	0.04836755
73	0x3e1614b9	0.14656343
74	0x3da62d04	0.08114055
75	0xbdb38594	-0.087657124
76	0x3d498be7	0.049205687
77	0x3e19759c	0.1498627
78	0xbe1f275a	-0.15542355
79	0x3dfce9b2	0.12349261
80	0x3e1f9eab	0.15587871
81	0x0b985561	5.8676734e-32
82	0x0d447bdc	6.0546253e-31
83	0x8b9b7eb8	-5.9894493e-32
84	0x8b966feb	-5.7946294e-32
85	0x0d4228c7	5.982995e-31
86	0x8b943334	-5.708457e-32
87	0x8b958fe2	-5.7609203e-32
88	0x0d4362c2	6.020789e-31
89	0x8b92aa8a	-5.6493753e-32
90	0xbc984d34	-0.0185915
91	0x3e34b073	0.17645435
92	0x3e5b198e	0.21396467
93	0x3da69f59	0.08135862
94	0x3ec3dcd8	0.38254428
95	0x3ee08c1a	0.4385689
96	0xbd1e6512	-0.038670607
97	0x3e8c747f	0.2743263
98	0x3e9e0d5a	0.3086956
99	0xbe00fc89	-0.12596335
100	0xbe2291c5	-0.15875919
101	0x3c69c555	0.014268239
102	0xbe1cbe48	-0.15306962
103	0xbe05c09a	-0.13061753
104	0x3d47f2f8	0.048815697
105	0xbe26e033	-0.16296463
106	0xbde8f4d7	-0.113748245
107	0x3d06b543	0.03288771
108	0xbe2af625	-0.16695459
109	0xbd8904c9	-0.06690366
110	0xbdde9f02	-0.10870172
111	0xbdc8dd29	-0.09807808
112	0xbce59dd8	-0.028029367
113	0xbe1e3cb6	-0.15452847
114	0xbc17a8cd	-0.009256554
115	0xbcb4dca9	-0.022077875
116	0xbdce478d	-0.10072241
117	0xbcc62c23	-0.024190968
118	0x3d03e502	0.03220082
119	0x3ab52da4	0.0013822806
120	0x3ce4d046	0.027931344
121	0x3d3aa13c	0.04556392
122	0x3cf590a2	0.029976193
123	0x3d1736eb	0.03691761
124	0x3cf86f36	0.030326467
125	0x3d59275a	0.053016044
126	0xbe414576	-0.18874153
127	0xbdcf270b	-0.10114869
128	0xbd1ec255	-0.03875955
129	0xbe2b5975	-0.16733344
130	0xbacdbe74	-0.0015697018
131	0x3d2a3fb9	0.041564677
132	0xbe1bc817	-0.15213047
133	0xbd04bef3	-0.032408666
134	0x3bb4c5ce	0.005516744
135	0x3dbd7e5e	0.09252618
136	0x3d0ed923	0.034875046
137	0x3b53b007	0.0032300965
138	0x3de4002f	0.111328475
139	0x3dfb075a	0.122572616
140	0x3d2ae3f1	0.041721288
141	0x3e5acc9f	0.21367119
142	0x3e3bcdff	0.183403
143	0x3e00a001	0.12561037
144	0xbd981a51	-0.074268945
145	0xbda3f96b	-0.08006557
146	0xbe01c30c	-0.1267206
147	0x3b881306	0.0041526584
148	0xbc62ac4d	-0.013835025
149	0xbd0c265b	-0.034216266
150	0x3b9a22a2	0.0047038356
151	0xbd900a91	-0.070332654
152	0xbce02daa	-0.027365524
153	0x0b80f31a	4.9669585e-32
154	0x8b838003	-5.0651975e-32
155	0x8d273eae	-5.1536296e-31
156	0x8b83a913	-5.071376e-32
157	0x0a037891	6.3300966e-33
158	0x8d27498a	-5.1549368e-31
159	0x895ab6dc	-2.6326776e-33
160	0x096d575c	2.8568913e-33
161	0x8d27588d	-5.1567437e-31
162	0x8d0dd7b5	-4.3708627e-31
163	0x8d0cbc59	-4.3367546e-31
164	0x0e0ad6ee	1.7113298e-30
165	0x8d0edd71	-4.402368e-31
166	0x8f4b76d6	-1.003156e-29
167	0x12918141	9.18265e-28
168	0x8f85b9db	-1.3186401e-29
169	0x93c9a243	-5.0899536e-27
170	0x96ac326c	-2.781992e-25
171	0x9fc197e4	-8.198996e-20
172	0xa1a92773	-1.1462328e-18
173	0x20c763fb	3.3778073e-19
174	0x1acb306c	8.403706e-23
175	0x9e6774bd	-1.2253179e-20
176	0x1e9290d9	1.5518259e-20
177	0x163db5e6	1.5324695e-25
178	0x9b5ea3c3	-1.8416324e-22
179	0x9a1a89ec	-3.1957866e-23
180	0x29bbf861	8.347555e-14
181	0x2a2ab875	1.516303e-13
182	0x2a81339b	2.2950812e-13
183	0xaa9c8a0f	-2.7806964e-13
184	0x2951df25	4.660087e-14
185	0x28a3ed14	1.8199452e-14
186	0xaa2bc9a6	-1.5257812e-13
187	0x24b87b1b	8.000583e-17
188	0x28b804ce	2.0430187e-14
189	0x3a876a69	0.0010331395
190	0x3c397ed0	0.011321738
191	0x3d98c895	0.07460133
192	0xbe43655a	-0.19081631
193	0xbe207a60	-0.15671682
194	0x3dbff449	0.093727656
195	0xbd6193d7	-0.05507263
196	0xbd987cb3	-0.074456595
197	0x3b72af28	0.003703067
198	0x3d07aad7	0.03312191
199	0x3d0a7f2f	0.033812698
200	0x3d3486c3	0.04407383
201	0xbcb72d73	-0.022360539
202	0x3c2e33c2	0.010632457
203	0x3d094b10	0.03351885
204	0x3d4098eb	0.047020834
205	0x3cc90e22	0.024542872
206	0x3b80e2f8	0.003933307
207	0x3aaf0170	0.0013351869
208	0xbc97d5e2	-0.018534604
209	0xbc080edd	-0.008304325
210	0x3aa64684	0.001268581
211	0xbc95a82c	-0.018268667
212	0xbcc3a8e9	-0.023884254
213	0xbb823052	-0.0039730454
214	0xbced7ab1	-0.028989168
215	0xbc8b8b68	-0.017034248
216	0x3e1cca6f	0.15311597
217	0x3e286987	0.16446505
218	0x3e5b7862	0.21432641
219	0x3e58738e	0.2113783
220	0x3e3e0019	0.18554725
221	0x3d62ec8f	0.05540138
222	0x3da28f85	0.079375304
223	0x3dfde8d8	0.12397927
224	0xbd4e311a	-0.050339796
225	0x0d18a671	4.7038963e-31
226	0x8d1243e5	-4.507145e-31
227	0x8d199d09	-4.733579e-31
228	0x0d1564e1	4.60356e-31
229	0x90310952	-3.4914275e-29
230	0x8d14d024	-4.585656e-31
231	0x0d180d64	4.6854735e-31
232	0x8d15e904	-4.619465e-31
233	0x8d179986	-4.6715265e-31
234	0x3c4a0726	0.012330806
235	0x3d3c56c6	0.04598119
236	0x3c585a57	0.013205132
237	0x3dff253e	0.12458275
238	0x3e2b7a3c	0.16745847
239	0x3df55c67	0.11980515
240	0x3db8de10	0.0902673
241	0x3e197b48	0.14988434
242	0x3d927e8d	0.07153044
243	0xbd9aae7d	-0.07552812
244	0xbdcf5998	-0.101245105
245	0x3cd27a7f	0.025693176
246	0xbd84c532	-0.064829245
247	0xbd918b80	-0.07106686
248	0x3d8251e7	0.06363278
249	0xbdca5ec9	-0.0988136
250	0xbd086e2e	-0.0333082
251	0x3d860861	0.06544567
252	0xbde00dd2	-0.10940136
253	0xbe19daa5	-0.15024813
254	0xbe39de1b	-0.18151133
255	0xbe49116d	-0.19635554

Conv_sequential_4/model_4/batch_normalization_1/FusedBatchNormV3:0.bias f4 [32]
0	0x3eb35173	0.35023078
1	0x3e82ced1	0.25548413
2	0xbe340899	-0.17581405
3	0x3f33e72a	0.70274603
4	0x3f201594	0.62532926
5	0xbee6517d	-0.44984046
6	0xbfd8f5e0	-1.6950035
7	0x3f0bfc00	0.54681396
8	0x3ec0a5e7	0.37626573
9	0x3e544ccb	0.20732419
10	0x3de15fc3	0.11004593
11	0x3f4b9dc8	0.7953763
12	0xbedc7cd6	-0.43063992
13	0xbeea3b98	-0.4574859
14	0x3f803873	1.0017227
15	0xbfc112cb	-1.508386
16	0x3fb91e58	1.4462385
17	0x3fa52724	1.290257
18	0x3fb53979	1.4158164
19	0x3fb5fa22	1.421696
20	0x3fcadb78	1.5848227
21	0x3f7b610b	0.9819495
22	0x3fe3fdfc	1.7811885
23	0x3fc4db8a	1.5379498
24	0x3fcee1ee	1.6162698
25	0xbed73455	-0.42032114
26	0x4013e9d1	2.311146
27	0x3f20a4a2	0.6275121
28	0xbec6b318	-0.38808513
29	0x3f09cf31	0.53831774
30	0xbfa08fa5	-1.2543837
31	0x3fd6c0a1	1.6777536

Conv_sequential_4/model_4/batch_normalization_2/FusedBatchNormV3:0.weight f4 [16, 32, 1, 1]
0	0x3e062196	0.1309875
1	0xbd78f7f7	-0.060783353
2	0x3d489a7a	0.048975445
3	0xbe2f8356	-0.17139944
4	0x3e069f9f	0.13146828
5	0xbda34c09	-0.07973487
6	0x3e612946	0.21988401
7	0xbdc3de5f	-0.09563898
8	0x3daf1586	0.08549027
9	0xbe35f749	-0.17770113
10	0x3cab83de	0.020936903
11	0x3da11763	0.07865789
12	0xbc3cfd37	-0.0115349805
13	0x3e6676ae	0.2250621
14	0x3deb2e05	0.11483387
15	0x3e373357	0.17890678
16	0xbb227aca	-0.0024792426
17	0x3e540d28	0.20708144
18	0xbccfe495	-0.025377551
19	0xbd71e8fc	-0.05906008
20	0xbe181850	-0.14853024
21	0xbe16bff0	-0.14721656
22	0xbd9fb844	-0.07798818
23	0xbb0839c7	-0.002078639
24	0x3d3f4e32	0.046705432
25	0x3e1fbcf9	0.15599431
26	0xbe156e88	-0.14592946
27	0xbdf649f1	-0.12025822
28	0x3e000659	0.12502421
29	0x3e209d2d	0.15684958
30	0x3d2c97b0	0.042136848
31	0xbd627b6d	-0.05529349
32	0x3de28597	0.110606365
33	0xbdb32bcb	-0.08748587
34	0xbcf1b3ff	-0.029504774
35	0xbe11aa0f	-0.14225028
36	0x3e291ae1	0.1651416
37	0xbe806eba	-0.25084478
38	0x3e322c52	0.1739972
39	0xbe81f25c	-0.25380218
40	0xbd8c9bc3	-0.06865647
41	0xbdc6859b	-0.09693452
42	0xbdd1a987	-0.10237413
43	0x3dbdcb5e	0.09267305
44	0xbda665ca	-0.081248835
45	0xbe037456	-0.12837347
46	0x3e67a6c7	0.22622214
47	0xbe2c5e1d	-0.16832776
48	0xbe345c83	-0.17613415
49	0xbd8b717e	-0.06808756
50	0xba2a8104	-0.000650421
51	0xbd35cc1d	-0.04438411
52	0xbc80f3a8	-0.015741184
53	0x3d50572c	0.050864384
54	0x3be51c85	0.006991925
55	0xbdb3cb07	-0.08778959
56	0xbe1e88c0	-0.15481853
57	0xbe6b5dd9	-0.22985019
58	0xbe98929a	-0.29799348
59	0x3d4c4a50	0.049875557
60	0x3d65a35a	0.056063987
61	0xbdb2ff5f	-0.087401144
62	0xbe6b072d	-0.22951956
63	0xbd63edc7	-0.055646684
64	0xbe7902bd	-0.24317451
65	0x3bdaf208	0.0066816844
66	0x3dcc8e85	0.09988121
67	0x3e1d576a	0.15365377
68	0xbd8af879	-0.06785674
69	0xbdb8a731	-0.09016264
70	0x3e3c85b0	0.18410373
71	0xbde38e0e	-0.11111079
72	0xbe26b01d	-0.1627812
73	0xbe2fa87f	-0.1715412
74	0x3e366a6e	0.17814037
75	0x3c8f1a46	0.017468583
76	0x3e02b2a6	0.12763461
77	0x3dd27e85	0.10278038
78	0xbe200129	-0.15625443
79	0xbbce551b	-0.0062967665
80	0x3e7b2ea7	0.24529515
81	0x3e04d73d	0.12972732
82	0x3e89dd63	0.26926717
83	0x3e296a4f	0.1654446
84	0xbe302c1c	-0.17204326
85	0x3e2111a4	0.15729386
86	0xbecba413	-0.39773616
87	0x3d5ccbdb	0.05390535
88	0xbec4d7ab	-0.38445792
89	0xbe8ebca6	-0.27878302
90	0xbbdbe81c	-0.006711019
91	0x3ea06338	0.31325698
92	0x3ec961a6	0.39332312
93	0x3de963fc	0.11396024
94	0x3de1a234	0.11017266
95	0xbe09949a	-0.13435593
96	0x3d92ad51	0.07161964
97	0x3e6ab823	0.22921805
98	0x3d9da70d	0.07697878
99	0xbd16f124	-0.036851063
100	0x3dd01d68	0.10161859
101	0xba764a23	-0.00093952025
102	0xbe113dd9	-0.1418375
103	0x3c9e6f3e	0.019340154
104	0xbe8f8f21	-0.28038886
105	0x3d962393	0.07331004
106	0xbe17b983	-0.14816861
107	0xbdbc8a64	-0.092060834
108	0x3e4105a6	0.18849811
109	0x3c6f6af6	0.014612904
110	0x3e575aec	0.21030778
111	0x3dfdeba9	0.12398464
112	0xbd867a46	-0.065662906
113	0xbd7d6058	-0.06185946
114	0xbd8d39c9	-0.06895787
115	0xbe277e88	-0.16356862
116	0xbeb8fbf6	-0.3612973
117	0xbe7f3f50	-0.24926496
118	0xbd27afb1	-0.040939037
119	0xbe353f12	-0.1769984
120	0x3d0c5364	0.034259215
121	0x3dd3e342	0.1034608
122	0xbe25c4b6	-0.1618832
123	0xbd2a40c8	-0.041565686
124	0x3e310632	0.1728752
125	0x3e4044e9	0.18776287
126	0x3ec0b808	0.37640405
127	0x3ca150c9	0.019691842
128	0xbe37df0a	-0.17956176
129	0xbe39c5fc	-0.18141931
130	0xbdda2ddc	-0.10653278
131	0x3e01de61	0.12682487
132	0xbe95b603	-0.29240426
133	0x3e1ff2c8	0.15619957
134	0xbdfe8c58	-0.12429112
135	0xbe8144f9	-0.25247934
136	0xbe28ca90	-0.16483521
137	0x3e731503	0.23738484
138	0x3ddfacde	0.10921644
139	0x3e0bd5c5	0.13655765
140	0xbaf64349	-0.0018788363
141	0xbe8f4242	-0.27980238
142	0xbc6555a5	-0.01399747
143	0x3e1b0f85	0.15142639
144	0x3d20268c	0.03909926
145	0xbe71420d	-0.23560353
146	0xbe148373	-0.14503269
147	0x3db8ac52	0.090172425
148	0xbccd05e9	-0.025027232
149	0x3e14ac3b	0.14518826
150	0xbe7bb3f6	-0.24580368
151	0x3e533513	0.20625715
152	0xbde4e7f7	-0.11177056
153	0x3e814e66	0.25255126
154	0xbdaca127	-0.08429175
155	0xbd9892c3	-0.074498676
156	0xbcfe6610	-0.031054527
157	0xbdbcfc7d	-0.09227846
158	0xbc86145a	-0.016367126
159	0x3dd1faa8	0.10252887
160	0xbd67470e	-0.056464247
161	0xbe9a713d	-0.3016452
162	0x3e355915	0.17709763
163	0x3d9de29b	0.07709237
164	0xbd156269	-0.036470804
165	0x3e1f10cc	0.15533751
166	0xbe4616dd	-0.19344659
167	0xbe3c7028	-0.18402159
168	0xbd320324	-0.043460026
169	0xbda97dcd	-0.08275948
170	0x3e07c412	0.13258389
171	0x3e64ce47	0.22344314
172	0xbeadb3f9	-0.3392637
173	0xbbad06fc	-0.0052803736
174	0xbc97269b	-0.018451026
175	0x3dc59847	0.09648185
176	0xbe0caf8f	-0.13738845
177	0xbe5600dd	-0.20898767
178	0x3dc0bca7	0.094109826
179	0xbe0e387c	-0.13888735
180	0x3e2ae544	0.1668902
181	0x3d93af5f	0.07211184
182	0xbdfa360d	-0.122173406
183	0x3e010789	0.1260053
184	0xbd466570	-0.048436582
185	0x3d13df46	0.036101602
186	0xbd09293f	-0.0334866
187	0x3d796a2a	0.06089226
188	0xbe51328d	-0.2042944
189	0x3e00e801	0.12588502
190	0x3b25c371	0.0025293494
191	0xbe5c4bb6	-0.21513256
192	0xbd920fb6	-0.07131903
193	0x3e85b3a0	0.26113605
194	0xbd620b74	-0.055186704
195	0xbea4b1ae	-0.3216681
196	0x3e7d49ac	0.24735135
197	0x3e6d0cf4	0.23149472
198	0x3da81f42	0.08209087
199	0x3e7fa484	0.24965101
200	0x3d52578f	0.051353034
201	0xbd4c2259	-0.049837444
202	0x3d94d270	0.072667
203	0xbd0a540e	-0.033771567
204	0x3e257848	0.16159165
205	0x3e3e5cf3	0.18590145
206	0x3e27e475	0.16395743
207	0xbe1d7a43	-0.1537867
208	0xbe832609	-0.25614956
209	0x3d740b24	0.059580937
210	0xbe02126d	-0.12702341
211	0xbdb7cb95	-0.08974377
212	0xbea6c110	-0.3256917
213	0x3e1c0b26	0.15238628
214	0xbd4a22e9	-0.0493497
215	0xbeb699d3	-0.35664234
216	0xbdadb603	-0.084819816
217	0x3a1da240	0.0006013252
218	0xbe266668	-0.16250002
219	0xbe0b8c27	-0.13627683
220	0x3e014066	0.12622222
221	0x3ea7ef12	0.32799584
222	0x3e21815b	0.15772001
223	0x3e03ef01	0.12884142
224	0x3d22485b	0.039619785
225	0x3e37e960	0.17960119
226	0x3dc78c46	0.09743552
227	0xbccbf9eb	-0.024899444
228	0x3ebd0be2	0.36923128
229	0xbe028dcc	-0.12749404
230	0x3dc63e58	0.0967986
231	0x3e425124	0.18976265
232	0x3e82665b	0.25468716
233	0xbd677fd3	-0.056518387
234	0xbd75ddc3	-0.06002594
235	0x3cd15d6f	0.025557248
236	0xbe3cb3ca	-0.18427959
237	0x3e32a2f1	0.1744497
238	0x3e5a23f9	0.21302785
239	0x3dcb907b	0.09939667
240	0x3d60d0a7	0.054886486
241	0x3e76f5f9	0.24117269
242	0x3d1b07ae	0.03784912
243	0xbe93baaa	-0.2885335
244	0x3a279b4b	0.0006393685
245	0x3de55a19	0.111988254
246	0x3dc33f6a	0.0953358
247	0x3da6de0d	0.081478216
248	0x3dbe9a4d	0.09306774
249	0xbb3ab8bb	-0.0028491456
250	0xbd8486e7	-0.06471043
251	0x3d53c4dd	0.051701415
252	0x3d5fd207	0.054643657
253	0x3d038a39	0.03211424
254	0xbd2867f7	-0.041114774
255	0x3d548cc4	0.051892057

Conv_sequential_4/model_4/batch_normalization_2/FusedBatchNormV3:0.bias f4 [16]
0	0xbdc1536d	-0.0943974
1	0x3f556a96	0.8336576
2	0xbecb7a8f	-0.39741942
3	0x3ecc8391	0.39944127
4	0x3eff2d21	0.49839118
5	0x3e7b14ad	0.24519606
6	0x3daed2a7	0.085362725
7	0xbf3d748f	-0.7400598
8	0xbfb00167	-1.3750428
9	0x3e524680	0.20534706
10	0xbec10730	-0.37700796
11	0xbf0d42b1	-0.5517989
12	0xbeebdbf0	-0.46066236
13	0x3c112a90	0.008860245
14	0x3f87da9a	1.0613587
15	0xbeb702b2	-0.35744244

Conv_sequential_4/model_4/separable_conv2d/separable_conv2d/depthwise:0.weight f4 [32, 1, 3, 3]
0	0x3d456cd6	0.048199497
1	0x3c209803	0.009801867
2	0xbe1907ad	-0.14944334
3	0x3e3838be	0.17990395
4	0xbc77cfd0	-0.01512523
5	0xbd9454ac	-0.072427124
6	0x3e142a00	0.14469147
7	0x3d1591ec	0.036516115
8	0xbdc0a1ef	-0.094058864
9	0xbdaae657	-0.08344715
10	0xbcc0a2dc	-0.023515157
11	0x3d8c02b9	0.06836457
12	0xbdb49fb7	-0.08819526
13	0xbdd85ae9	-0.10564215
14	0x3df2c37a	0.118536904
15	0xbe03cd13	-0.12871198
16	0x3d916f7a	0.071013406
17	0xbc9cb8ac	-0.019131027
18	0x3d1e2aa1	0.038614873
19	0x3d6f689b	0.05844937
20	0x3d36d55d	0.044637073
21	0xbccbb758	-0.024867699
22	0x3e12efa3	0.14349227
23	0xbde62e3e	-0.11239289
24	0x3d3dada0	0.04630816
25	0x3e242350	0.16029096
26	0x3d385579	0.045003388
27	0x3d3e8b63	0.04651965
28	0xbda28d3e	-0.07937096
29	0xbd61ada9	-0.055097256
30	0x3cf2f48a	0.029657621
31	0xbd9072e3	-0.07053163
32	0xbb76053f	-0.0037539748
33	0xbce22d9b	-0.027609637
34	0x3d9f859d	0.077891566
35	0x3e2d519b	0.16925661
36	0xbe1988a3	-0.14993529
37	0x3e02fe1f	0.12792252
38	0x3d99ee89	0.075162
39	0xbd8b4d16	-0.06801812
40	0x3d8562e1	0.06513
41	0xbda88c7e	-0.08229922
42	0x3cf39bb1	0.029737325
43	0xbe11d246	-0.14240369
44	0xbdda2bac	-0.10652861
45	0x3d3ba87e	0.045814984
46	0xbd558da2	-0.052137025
47	0xbc83c1ca	-0.016083617
48	0x3e0bd6a6	0.136561
49	0x3e01f0d4	0.12689525
50	0x3dc77f4c	0.09741077
51	0xbd0ae6bc	-0.03391145
52	0x3d6b2e2b	0.057417076
53	0x3dd1fea8	0.1025365
54	0xbda56be9	-0.08077223
55	0xbe2486f3	-0.16067104
56	0x3c224432	0.009903954
57	0x3e27dd5d	0.16393037
58	0x3e2b95cb	0.1675636
59	0xbcf7f8d4	-0.030270018
60	0xbdce0791	-0.10060037
61	0x3dc2da2e	0.09514271
62	0x3d14514a	0.036210336
63	0xbddb03d8	-0.106940925
64	0xbdacd77d	-0.08439539
65	0x3d9c2a7d	0.076252915
66	0xbdf04884	-0.11732581
67	0xbd889bc6	-0.066703364
68	0x3d7fe87e	0.06247758
69	0x3d6e1cff	0.05813312
70	0xbda94441	-0.082649715
71	0xbbe2166c	-0.0068996456
72	0xbe1939f4	-0.14963514
73	0xbd9bf831	-0.07615698
74	0xbd412df7	-0.047162976
75	0x3da9b4e2	0.08286454
76	0xbd629235	-0.055315215
77	0x3e005dc0	0.12535763
78	0x3df78f1b	0.12087842
79	0xbd2a901f	-0.04164135
80	0xbe0aa574	-0.13539678
81	0x3db017aa	0.085982636
82	0x3db8a0bf	0.09015035
83	0xbde576bf	-0.1120429
84	0x3da3de15	0.08001343
85	0x3e0344c0	0.12819195
86	0x3c5abc7a	0.0133506
87	0xbdba83f7	-0.091072015
88	0xbd795357	-0.060870495
89	0x3cf2d014	0.029640235
90	0x3df86a47	0.12129646
91	0xbc228f82	-0.00992191
92	0xbd0e75cb	-0.034780305
93	0xbdac3562	-0.084086195
94	0xbc11ed94	-0.008906741
95	0xbb630b44	-0.0034644166
96	0xbde51146	-0.11184935
97	0x3d9d8ceb	0.076928936
98	0x3d1b04d3	0.037846398
99	0x3dd922e5	0.10602359
100	0x3cd50e6a	0.02600785
101	0xbe682d1f	-0.22673462
102	0xbe3c2b8d	-0.18375988
103	0x3dbe8786	0.09303193
104	0x3d627c2c	0.0552942
105	0xbe00bef0	-0.12572837
106	0x3d548450	0.051883996
107	0x3ea17f11	0.31542256
108	0xbdaea91a	-0.08528347
109	0x3e2fd7f5	0.17172225
110	0xbd80570b	-0.06266602
111	0x3935ff1e	0.00017356544
112	0x3d6da671	0.05802006
113	0x3da8a663	0.08234861
114	0xbd08a764	-0.03336276
115	0xbe6e9ac5	-0.23301227
116	0xbdb76587	-0.08954912
117	0xbc77c5e4	-0.015122864
118	0x394fdf44	0.00019824231
119	0x3dceb8e7	0.10093861
120	0x3ce65bfb	0.028120032
121	0x3d663685	0.056204338
122	0xbd27894e	-0.04090243
123	0xbd01f82e	-0.031730823
124	0xbd4987f3	-0.049201917
125	0x3d0ef9c3	0.03490616
126	0x3e3514e5	0.17683752
127	0x3de031e4	0.10947016
128	0xbd97ff48	-0.07421738
129	0xbc1d5de6	-0.009604907
130	0xbb901633	-0.0043971776
131	0x3e262634	0.16225511
132	0xbdecfad7	-0.115712814
133	0xbcbc3945	-0.022976527
134	0xbd3e412f	-0.046448883
135	0x3dda8856	0.10670535
136	0xbb8926e1	-0.004185543
137	0x3dc7f24e	0.09763013
138	0xbd736f37	-0.059432235
139	0xbe880c46	-0.26571864
140	0x3cbce0d0	0.023056418
141	0xbda4407d	-0.08020113
142	0xbdceb643	-0.100933574
143	0xbcf53a87	-0.029935135
144	0xbdd7116e	-0.10501371
145	0xbdc21359	-0.094763465
146	0x3c8842c3	0.016633397
147	0x3e2b38a5	0.16720827
148	0xbeac3006	-0.3363039
149	0x3bd54283	0.006508173
150	0x3e7ab3e8	0.24482691
151	0x3e0126e7	0.12612496
152	0xbd3af28c	-0.045641467
153	0x3d5feb37	0.054667678
154	0xbdcfaffd	-0.10140989
155	0x3d16371d	0.036673654
156	0xbdc85b5d	-0.09783051
157	0xbd6eea87	-0.05832913
158	0xbd38a056	-0.045074783
159	0x3aea2098	0.0017862497
160	0x3c43aa2c	0.011942428
161	0x3d144b11	0.0362044
162	0x3d5cf807	0.053947475
163	0xbd8092b3	-0.06277981
164	0xbcc71fcc	-0.024307154
165	0xbe8234ec	-0.25431
166	0xbe63eee6	-0.22259101
167	0xbe04b48b	-0.12959497
168	0x3e300b9c	0.17191929
169	0x3f00f8d0	0.5037966
170	0x3da29509	0.079385825
171	0x3dc438b2	0.09581126
172	0x3d958fe5	0.07302836
173	0xbe2c4eb2	-0.16826895
174	0x3e214d16	0.15752062
175	0x3e147298	0.14496839
176	0xbdf05d9f	-0.11736607
177	0x3e6ad94d	0.22934456
178	0x3dbef239	0.09323544
179	0xbd8106b7	-0.06300109
180	0x3d94b3f0	0.07260883
181	0xbcb30110	-0.021851093
182	0xbe1af367	-0.15131913
183	0x3d9ece41	0.077541836
184	0xbcb40bc9	-0.021978276
185	0x3d25b541	0.04045606
186	0xbbeda31c	-0.00725211
187	0xbd01d969	-0.03170148
188	0xbd857c4f	-0.065178506
189	0xbc04934b	-0.008091758
190	0x3c416f23	0.011806282
191	0x3dd3cdd2	0.103419915
192	0xbeac409f	-0.33643052
193	0x3e4f8216	0.20264468
194	0x3e13679b	0.14394991
195	0xbe8177e4	-0.25286782
196	0xbd16b02d	-0.036789108
197	0x3e15c4a5	0.14625795
198	0xbd14449c	-0.036198243
199	0x3dbd1aa8	0.092336
200	0xbd259109	-0.04042152
201	0x3e25a26e	0.16175243
202	0xbc3adcc4	-0.011405174
203	0xbe1e7388	-0.15473759
204	0x3e0ae62c	0.13564366
205	0xbe835a67	-0.2565491
206	0x3d552101	0.052033428
207	0xbe2ab0eb	-0.16669051
208	0xbe1aa87d	-0.15103336
209	0x3e14149d	0.14460988
210	0xbe3f2ad8	-0.18668687
211	0xbd9a2de3	-0.075282834
212	0x3defc24f	0.11706983
213	0x3daeaf82	0.08529569
214	0x3eb054e5	0.3443977
215	0x3d649bfb	0.055812817
216	0xbd31c79c	-0.043403253
217	0xbe128474	-0.1430834
218	0xbdb37bab	-0.08763822
219	0x3be2522c	0.0069067683
220	0xbe1a29ab	-0.15054958
221	0xbe062d0c	-0.13103122
222	0x3ddfc4aa	0.109261826
223	0x3e9ae34b	0.30251536
224	0x3e4e88da	0.20169392
225	0xbe1810b2	-0.14850119
226	0x3d1a7bc2	0.03771568
227	0x3e057bfd	0.13035579
228	0xbca89c20	-0.020582259
229	0x3d745057	0.05964693
230	0x3db9bd7f	0.09069347
231	0xbc925ad5	-0.017865578
232	0xbde3f3c5	-0.1113048
233	0xbc40f291	-0.011776582
234	0xbdfaddd6	-0.12249343
235	0x3d8d07af	0.06886231
236	0x3e165ad4	0.14683086
237	0xbdc12df9	-0.09432597
238	0xbe498040	-0.1967783
239	0xbd814a1a	-0.06312962
240	0x3e66f5a8	0.22554648
241	0x3e66baec	0.22532243
242	0xbe5b85aa	-0.21437708
243	0x3d560e66	0.052259825
244	0x3e3456f2	0.17611292
245	0x3d02afde	0.031906
246	0x3e04aa71	0.12955643
247	0xbe403e2e	-0.1877372
248	0x3c5b9189	0.0134013975
249	0xbb76006f	-0.003753688
250	0xbe1cc4f9	-0.15309514
251	0xbd96b44a	-0.07358606
252	0xbcb5606f	-0.02214071
253	0x3c8e1b7f	0.017347096
254	0xbda96f08	-0.08273131
255	0xbd10e9ce	-0.035379224

Conv_sequential_4/model_4/separable_conv2d_1/separable_conv2d/depthwise:0.weight f4 [16, 1, 3, 3]
0	0x3d79156c	0.060811445
1	0xbe49815b	-0.19678251
2	0x3e27ea0b	0.16397874
3	0xbe36a368	-0.17835772
4	0x3d98c2cb	0.07459029
5	0x3e10a9e0	0.14127302
6	0xbe15c581	-0.14626123
7	0x3dc7fff6	0.097656175
8	0xbdd90461	-0.10596538
9	0x3d711042	0.058853395
10	0xbe0bbeba	-0.13646975
11	0x3e3ef475	0.1864794
12	0xbe13a9f9	-0.14420308
13	0x3e907c13	0.2821966
14	0x3e48e96d	0.19620295
15	0xbdc912bf	-0.09818029
16	0x3e82124e	0.2540459
17	0xbe03c943	-0.12869744
18	0x3d066678	0.032812566
19	0x3db3cd1a	0.087793544
20	0x3e168fb8	0.14703262
21	0xbe43bd3f	-0.1911516
22	0xbd38ac14	-0.04508598
23	0x3d96b153	0.07358041
24	0xbccdc2da	-0.025117327
25	0x3cbadd2d	0.022810543
26	0x3d038a90	0.032114565
27	0xbdd39034	-0.10330239
28	0xbcfe478b	-0.031039974
29	0xbe431347	-0.19050322
30	0xbda959cf	-0.08269083
31	0xbe0bf998	-0.13669431
32	0xbdc005c5	-0.093761005
33	0x3df22b85	0.11824707
34	0x3cf8aba9	0.030355291
35	0xbe2774bc	-0.16353124
36	0xbe3184b9	-0.17335786
37	0xbe9d2073	-0.3068882
38	0xbddce659	-0.10786123
39	0x3c2fa65c	0.0107208155
40	0xbdd9ba14	-0.10631195
41	0xbd6a3213	-0.05717666
42	0xbdbd2eae	-0.09237419
43	0x3e146786	0.14492616
44	0x3b554b95	0.003254627
45	0x3e05e180	0.13074303
46	0x3e17f557	0.14839683
47	0xbd57a75b	-0.052649837
48	0xbe55a904	-0.20865256
49	0x3df258af	0.11833321
50	0x3e80d496	0.2516219
51	0x3e28f901	0.16501237
52	0xbd307d78	-0.043088406
53	0xbd51e849	-0.051246915
54	0x3de89cd6	0.11358039
55	0x3e9aca3a	0.30232412
56	0xbe1de1b8	-0.15418136
57	0x3e0b9165	0.13629682
58	0x3cdf4247	0.027253283
59	0xbd9778e6	-0.073961064
60	0x3db679e6	0.08909969
61	0xbeb0d0f5	-0.34534422
62	0x3e0e5897	0.13900982
63	0xbe3de097	-0.18542705
64	0xbe1c1b57	-0.15244804
65	0xbdc4fefd	-0.09618948
66	0xbd9f08ea	-0.07765372
67	0xbe319182	-0.17340663
68	0x3de1ba35	0.11021844
69	0x3d3c4fbb	0.045974474
70	0xbe228158	-0.15869653
71	0xbe387c21	-0.18016101
72	0x3cb44ca6	0.022009205
73	0xbdb99527	-0.09061652
74	0xbc05e661	-0.008172602
75	0x3dd61bec	0.104545444
76	0x3dff0e80	0.124539375
77	0xbe63181e	-0.22177169
78	0xbdc89908	-0.097948134
79	0xbe5ec10c	-0.21753329
80	0x3e1cb5a4	0.15303665
81	0x3d0c0182	0.034181125
82	0x3e5870f5	0.2113684
83	0x3e18f91a	0.14938775
84	0x3e8f35ce	0.27970737
85	0xbe2932e1	-0.16523315
86	0x3db9c415	0.09070603
87	0x3ead54f3	0.33853874
88	0xbe298976	-0.16556343
89	0x3dc77153	0.09738412
90	0xbe594e4f	-0.21221279
91	0xbe23ec33	-0.16008072
92	0xbd44f399	-0.048083875
93	0xbdf6f877	-0.1205911
94	0x3db9ef7f	0.090788834
95	0x3e787c86	0.24266252
96	0x3d78cd66	0.06074276
97	0xbcb18df8	-0.021674141
98	0x3deb19c4	0.11479524
99	0x3e3b1abe	0.1827192
100	0x3e1ca56d	0.1529748
101	0xbd1dbbde	-0.038509242
102	0x3e06d334	0.13166505
103	0x3e85b13a	0.26111776
104	0x3e5791a0	0.21051645
105	0x3e0c7179	0.13715161
106	0x3e0bcac7	0.13651572
107	0x3d508840	0.050911188
108	0x3d57e856	0.052711807
109	0x3c35480b	0.01106454
110	0xbe8a91e9	-0.27064446
111	0x3e54b9d9	0.2077402
112	0xbdd3971c	-0.10331556
113	0xbe3177de	-0.17330882
114	0x3e541a11	0.20713069
115	0x3d0ec767	0.034858134
116	0xbe6cb28c	-0.23114985
117	0xbd96ff1f	-0.07372879
118	0xbe0bc6e3	-0.13650088
119	0xbd24a9dc	-0.040201053
120	0xbcd3d80c	-0.025859855
121	0xbdc96f6c	-0.09835705
122	0xbd72c0e0	-0.05926597
123	0xbe1933c5	-0.14961155
124	0xbd61412f	-0.054993805
125	0xbd4ee53c	-0.050511584
126	0xbc6463d2	-0.013939815
127	0x3bb9a575	0.005665476
128	0xbdabe5de	-0.08393453
129	0xbe75d5bc	-0.24007314
130	0x3bf46285	0.0074580335
131	0xbe37ebe0	-0.17961073
132	0xbe2ca944	-0.16861445
133	0xbda01d17	-0.078180484
134	0xbdae90d6	-0.08523719
135	0xbcf5e0ee	-0.030014481
136	0x3cb3b8fd	0.021938795
137	0xbe035fca	-0.1282951
138	0x3d890e3c	0.06692168
139	0xbe6ac946	-0.22928342
140	0x3d615be3	0.05501927
141	0xbd26a14b	-0.040681165
142	0xbea04499	-0.31302336
143	0xbe2fedf9	-0.17180623

Conv_sequential_4/model_4/separable_conv2d_2/separable_conv2d/depthwise:0.weight f4 [16, 1, 3, 3]
0	0xbe0eb812	-0.13937405
1	0xbd143604	-0.036184326
2	0xbe0b48a0	-0.13601923
3	0xbdf6ece0	-0.12056899
4	0xbe5d916c	-0.21637505
5	0x3cbb7893	0.022884643
6	0x3e2b571c	0.16732448
7	0xbe331b38	-0.17490852
8	0x3d40a74a	0.04703454
9	0xbd6a926f	-0.057268556
10	0x3e795241	0.24347784
11	0x3e03c1e0	0.12866926
12	0x3e1b754a	0.15181461
13	0x3e0c8186	0.13721284
14	0x3e668900	0.22513199
15	0xbdb698b6	-0.08915846
16	0xbe0f72e9	-0.14008678
17	0xbd86ed1d	-0.065881945
18	0x39be6820	0.00036317203
19	0xbe2f84f7	-0.17140566
20	0x3e0235db	0.12715857
21	0x3c88c992	0.016697679
22	0xbe6458f2	-0.22299555
23	0xbda73701	-0.08164788
24	0x3a9d668e	0.0012008713
25	0xbe5fe9f7	-0.21866594
26	0xbe1755c0	-0.14778805
27	0xbdebfdb3	-0.11522999
28	0xbe4488b1	-0.19192769
29	0xbe81d866	-0.2536041
30	0x3e5208d7	0.20511185
31	0xbdaf7e14	-0.08568969
32	0xbd040599	-0.0322319
33	0x3e06611f	0.13122986
34	0xbda1f757	-0.079085045
35	0x3e273df2	0.16332224
36	0xbd0e57c6	-0.034751676
37	0xbd62a182	-0.055329807
38	0x395e5a8e	0.00021205304
39	0xbe77544e	-0.24153253
40	0xbccddc04	-0.025129326
41	0xbe1c8980	-0.15286827
42	0xbdc2234e	-0.0947939
43	0xbe01f126	-0.12689647
44	0xbe2c334e	-0.16816446
45	0xbe0db73f	-0.13839434
46	0xbe1b8e95	-0.1519111
47	0xbdff54d1	-0.12467349
48	0xbdbbc9d6	-0.091693565
49	0xbe8c6c76	-0.274265
50	0x3d1486f7	0.036261525
51	0xbdb84d6c	-0.08999142
52	0x3cb7f47e	0.02245545
53	0x3d4874df	0.048939582
54	0xbd2ded7c	-0.04246281
55	0x3dd2bf0a	0.10290344
56	0xbc233a2e	-0.009962602
57	0x3e0871b8	0.1332463
58	0xbb910b04	-0.004426362
59	0xbe8b9035	-0.2725846
60	0x3c800240	0.015626073
61	0xbe557c76	-0.2084826
62	0xbe86e89d	-0.26349345
63	0x3e3467f0	0.17617774
64	0x3e8aef29	0.2713559
65	0x3d8031e0	0.06259513
66	0xbd5d552b	-0.0540363
67	0x3d91d440	0.071205616
68	0xbd01511d	-0.031571496
69	0xbbf4d3a2	-0.0074715177
70	0xbde44dff	-0.11147689
71	0xbe8c3a71	-0.27388337
72	0x3e047273	0.12934284
73	0x3e4b3c79	0.19847287
74	0xbc0d980f	-0.008642211
75	0x3dba758a	0.0910445
76	0x3e81e122	0.25367075
77	0x3e4fc51c	0.20290035
78	0xbe1b4dca	-0.15166393
79	0xbe0ba61f	-0.13637589
80	0xbd9bca38	-0.076069295
81	0xbe00da0f	-0.12583183
82	0xbe919d99	-0.2844055
83	0xbe2ba95a	-0.16763821
84	0xbc7e2d40	-0.015513718
85	0xbcb69a8e	-0.022290494
86	0xbe4925d5	-0.19643338
87	0xbbef2df3	-0.0072991787
88	0xbd12dc0f	-0.035854395
89	0x3dab9478	0.083779275
90	0x3e87ffb3	0.2656227
91	0x3e9b6b9b	0.30355534
92	0xbd256964	-0.04038371
93	0xbc3bfc24	-0.011473689
94	0x3e3fb093	0.18719701
95	0xbdf5fa15	-0.1201059
96	0xbe00563b	-0.12532894
97	0x3d7aedac	0.061261818
98	0x3ca9ad42	0.020712499
99	0x3d91575f	0.07096743
100	0x3e644b37	0.22294317
101	0x3d0c6003	0.03427125
102	0x3dde3bd0	0.10851252
103	0xbc239ba8	-0.009985842
104	0x3d113501	0.03545094
105	0xbe8495c1	-0.25895503
106	0xbdff81a5	-0.124758996
107	0xbe6ee45e	-0.23329303
108	0x3de845dd	0.1134145
109	0x3e7797d3	0.2417901
110	0xbd5f24cc	-0.05447845
111	0x3d935702	0.0719433
112	0x3e3d691e	0.1849713
113	0x3d58c6b4	0.052923873
114	0xbddd29e2	-0.10799004
115	0xbe58bfa2	-0.21166852
116	0x3d0731b2	0.033006378
117	0xbd9e01ab	-0.07715162
118	0x3e1fb5ed	0.15596743
119	0x3e870e39	0.2637804
120	0xbe0d6704	-0.13808829
121	0x3e06a1ea	0.13147703
122	0x3e91b1aa	0.2845586
123	0xbe2872ac	-0.16449994
124	0xbe0ab4fc	-0.13545603
125	0x3e312ee6	0.17303047
126	0xbd42fa27	-0.047601845
127	0xbc0e7bd1	-0.008696512
128	0xbd6274ce	-0.055287175
129	0xbe410165	-0.18848188
130	0xbe2dc627	-0.1697012
131	0xbe4560b0	-0.19275165
132	0xbdb97483	-0.09055426
133	0xbddba956	-0.10725658
134	0xbe1637f0	-0.14669776
135	0xbdbb8fdc	-0.091582984
136	0xbd8e7e98	-0.069577396
137	0x3d621fb2	0.05520601
138	0xbdc3a112	-0.09552206
139	0xbea926d1	-0.33037427
140	0x3e4d0fa9	0.20025505
141	0xbdd9549a	-0.106118396
142	0xbe3532e1	-0.1769519
143	0x3d926275	0.071476854

Conv_sequential_4/model_4/batch_normalization_5/FusedBatchNormV3:0.weight f4 [32, 16, 1, 1]
0	0xbd7cba11	-0.061700884
1	0x3c2950aa	0.010334173
2	0xbe00ee02	-0.12590793
3	0xbe051077	-0.12994562
4	0x3dadcf00	0.08486748
5	0xbe22da37	-0.15903555
6	0xbdd8a590	-0.105784535
7	0x3e418372	0.18897799
8	0x3d62aaff	0.055338856
9	0xbc8f7520	-0.017511904
10	0x3e703499	0.23457564
11	0xbd90f235	-0.07077447
12	0xbe2ce488	-0.16884053
13	0x3d8e5c9a	0.06951256
14	0xbd40766e	-0.046987943
15	0xbd874df7	-0.066066675
16	0x3c0c3908	0.008558519
17	0x3c0f1c45	0.008734767
18	0x3b82cc46	0.0039916364
19	0x3df51478	0.11966795
20	0xbda08437	-0.07837718
21	0x3dce4218	0.100712
22	0x3c366d3b	0.011134441
23	0x3e121ee0	0.1426959
24	0x3dcba07e	0.09942721
25	0xbcb5a2f5	-0.02217243
26	0x3e26768b	0.16256158
27	0xbd329792	-0.04360158
28	0x3e06e3f8	0.131729
29	0x3e001927	0.12509595
30	0x3b85db9d	0.004085018
31	0xbe0133ae	-0.1261737
32	0xbbfe11c9	-0.007753585
33	0xbe3487c7	-0.1762992
34	0x3d893626	0.06699781
35	0xbd3a7693	-0.045523237
36	0xbd0f2b9e	-0.034953706
37	0x3d8cf2be	0.06882237
38	0xbe02978a	-0.1275312
39	0xbd85cfc5	-0.065337695
40	0x3d79baab	0.060969036
41	0xbe0ce2c3	-0.13758378
42	0xbc851fee	-0.016250577
43	0x3daa61e0	0.083194494
44	0x3e098b51	0.13432051
45	0x3e36476d	0.17800684
46	0x3dca8ccd	0.09890137
47	0xbda87ef6	-0.08227341
48	0xbe0dbe38	-0.13842094
49	0x3e9d12e1	0.30678466
50	0xbe055e0b	-0.13024156
51	0xbcf40ddb	-0.029791763
52	0x3e81e030	0.25366354
53	0xbd579a4d	-0.052637387
54	0x3e118872	0.14212206
55	0x3decb1e0	0.115573645
56	0x3c9de460	0.019273937
57	0x3e1ffce7	0.15623818
58	0x3e417616	0.18892702
59	0x3e42a9d4	0.19010097
60	0x3bc0fcc3	0.0058895065
61	0x3e10cc8f	0.14140533
62	0xbe6e1527	-0.23250256
63	0xbe0d46a1	-0.13796474
64	0xbd3a12f1	-0.04542822
65	0x3e533ed6	0.20629439
66	0xbd40be45	-0.047056455
67	0xbd08d4f0	-0.033406198
68	0xbca20213	-0.01977638
69	0x3e2cc186	0.16870698
70	0x3bb73d1f	0.005592003
71	0xbe0cda0b	-0.13755052
72	0xbd41adc8	-0.04728487
73	0x3da877f2	0.08226003
74	0xbc329d6a	-0.010901788
75	0xbd830dbe	-0.063991055
76	0xbdeaa495	-0.11457173
77	0xbd91309c	-0.0708935
78	0xbd667eda	-0.05627332
79	0xbd98e2ab	-0.074651085
80	0x3d6a202d	0.05715959
81	0xbd8923d9	-0.066962905
82	0xbbd5b548	-0.0065218545
83	0xbdd6672f	-0.104688995
84	0x3d08cc1e	0.033397786
85	0x3d5e3b8e	0.054256015
86	0xbdb83db9	-0.08996148
87	0xbcd1d60f	-0.025614766
88	0xbd3e4956	-0.046456657
89	0xbd49389a	-0.049126245
90	0xbdd875b0	-0.10569322
91	0xbdb153d2	-0.086585656
92	0xbd38ac4c	-0.04508619
93	0xbd91cb67	-0.07118874
94	0xbad54c16	-0.0016273286
95	0xbd2a3eb3	-0.0415637
96	0xbddad6b0	-0.1068548
97	0xbe31831b	-0.17335169
98	0xbdc4d979	-0.09611792
99	0x3dae4988	0.08510119
100	0xbdd05969	-0.10173304
101	0xbe202fb5	-0.15643199
102	0xbe0a3694	-0.13497382
103	0x3e24ca14	0.16092712
104	0x3b3c530f	0.002873603
105	0xbd06051c	-0.032719716
106	0xbe1dc35f	-0.1540656
107	0xbca5c95d	-0.020237619
108	0xbd91a81e	-0.07112144
109	0x3dd6de92	0.10491671
110	0x3d1ce9d8	0.03830895
111	0x3dac6b64	0.08418921
112	0xbe174085	-0.14770706
113	0x3cb38a1d	0.021916443
114	0xbd6cb81c	-0.057792768
115	0xbe0e8824	-0.13919121
116	0xbe21bbac	-0.15794247
117	0xbd5546b3	-0.052069377
118	0x37817590	1.5432743e-05
119	0xbe3c8e16	-0.18413576
120	0xbe4cc58f	-0.19997238
121	0xbe4c5d51	-0.19957472
122	0x3d87b0fe	0.066255555
123	0x3dca2105	0.09869579
124	0x3db4b055	0.08822695
125	0xbe397ace	-0.18113253
126	0x3bfe951e	0.007769241
127	0x3dbedbb8	0.09319252
128	0x3d7c2d41	0.061566595
129	0x3dbb44a4	0.091439515
130	0x37de5bb0	2.6507158e-05
131	0xbd4aa98b	-0.049478095
132	0xbdc67629	-0.09690506
133	0x3e1c7077	0.15277277
134	0xbd21c620	-0.039495587
135	0x3e3fd5fd	0.18733974
136	0x3d3345ea	0.043767847
137	0xbe45fd4a	-0.19334903
138	0x3e1f83e0	0.1557765
139	0xbd8d4263	-0.06897428
140	0x3b8ed4b0	0.0043588504
141	0x3acf2c95	0.0015806133
142	0xbbbf91d0	-0.0058462396
143	0x3d9663e1	0.07343269
144	0x3cd7dbe3	0.026349967
145	0x3e04417f	0.1291561
146	0x3d833ccf	0.06408083
147	0x3d81261c	0.06306097
148	0x3cc1c5c7	0.023653878
149	0xbde502bd	-0.11182163
150	0x3d37cca1	0.044872884
151	0x3e4e5981	0.2015133
152	0xbe17089c	-0.14749378
153	0xbd4b0470	-0.04956478
154	0x3e5c6bbc	0.21525472
155	0x3d997135	0.07492296
156	0xbd647660	-0.055776954
157	0x3c4333a1	0.011914165
158	0x3cb7ffc3	0.022460824
159	0xbcb83ad3	-0.022488987
160	0xbe29866f	-0.16555189
161	0x3db5bfa3	0.088744424
162	0x3df7b74f	0.1209551
163	0xbcbd3da1	-0.023100676
164	0xbd1f37f0	-0.038871706
165	0xbdcd731d	-0.10031722
166	0xbd6c88e2	-0.05774773
167	0xbda31735	-0.07963411
168	0xbe0e7aed	-0.1391408
169	0x3d9df594	0.07712856
170	0xbc9fc9b3	-0.019505357
171	0xbd8cace8	-0.06868917
172	0x3d8f5b5f	0.069998495
173	0x3c34e01d	0.011039761
174	0xbd8caa6d	-0.06868444
175	0x3cd9d243	0.026589518
176	0x3db61918	0.08891505
177	0x3d92d1f0	0.07168949
178	0x3df684fc	0.120370835
179	0xbdb4c21c	-0.08826086
180	0xbe21629e	-0.15760276
181	0x3d10a639	0.035314772
182	0xbe09441d	-0.1340489
183	0xbca9505e	-0.020668205
184	0x3e1573d7	0.1459497
185	0x3c98830c	0.018617176
186	0x3e0730ff	0.13202284
187	0xbc972f9e	-0.018455323
188	0xbe221dc2	-0.15831664
189	0xbe2f6868	-0.17129672
190	0xbe22127f	-0.15827368
191	0xbc8be0e1	-0.017075004
192	0x3e00cc60	0.12577963
193	0xbdc4458e	-0.09583579
194	0xbdb255d6	-0.08707778
195	0xbdc7c17a	-0.097536996
196	0x3cc3c0ed	0.023895705
197	0x3e1bae07	0.15203105
198	0x3de6b7b6	0.11265509
199	0x3d81d227	0.063389115
200	0xbc2ac73f	-0.0104234805
201	0x3e46577c	0.1936931
202	0xbe8edda6	-0.2790348
203	0x3da006e3	0.078138135
204	0xbd81e336	-0.06342165
205	0x3e2d006e	0.16894695
206	0x3c624a4a	0.013811657
207	0x3d977282	0.073948875
208	0xbe517fbe	-0.20458886
209	0x3e3b0eed	0.18267412
210	0x3cb63cfb	0.022245875
211	0xbc678027	-0.014129675
212	0xbc6f832e	-0.014618678
213	0xbe256dae	-0.1615512
214	0xbd9c2a3d	-0.07625244
215	0xbcb16fbc	-0.021659724
216	0xbe32336e	-0.17402431
217	0x3d01d14d	0.031693745
218	0x3e599cd2	0.21251228
219	0xbdfd5aa5	-0.12370805
220	0x3d4475ee	0.04796403
221	0xbd6ab272	-0.057299085
222	0xbc8f5285	-0.017495403
223	0x3dabc71b	0.08387586
224	0x3d9a14d1	0.07523502
225	0xbd41dc4c	-0.047329232
226	0x3db1d6f0	0.08683574
227	0xbd9ddef7	-0.07708543
228	0x3d34e100	0.04415989
229	0x3d379f65	0.044829745
230	0x3de07106	0.109590575
231	0x3cc5716b	0.024101933
232	0x3dfccdf5	0.12343971
233	0xbdd5d82e	-0.10441624
234	0x3d95fdd9	0.07323808
235	0x3da4e45d	0.08051369
236	0x3d8ce225	0.06879071
237	0xbdd57947	-0.104235224
238	0xbdc31bcd	-0.09526787
239	0x3c66bd46	0.014083212
240	0xbbe6aedc	-0.007039888
241	0xbb9896b5	-0.0046566376
242	0xbce8c3e8	-0.028413728
243	0xbe0439f1	-0.12912728
244	0x3da7132e	0.08157955
245	0xbdcc8e4d	-0.09988079
246	0xbdc77004	-0.09738162
247	0xbe10796f	-0.14108823
248	0xbd8ae63f	-0.06782197
249	0x3dc741d5	0.09729353
250	0xbde3beb8	-0.11120361
251	0x3b51d232	0.0032016155
252	0x3cd878fb	0.026424875
253	0x3ca2d5c7	0.019877328
254	0xbbbf676d	-0.0058411867
255	0xbc6a37e1	-0.014295549

Conv_sequential_4/model_4/batch_normalization_5/FusedBatchNormV3:0.bias f4 [32]
0	0xbde27e2d	-0.11059222
1	0xbf3eed2b	-0.7458064
2	0xbd3d39e1	-0.046197776
3	0xbf7555af	-0.9583387
4	0x3e140ec9	0.14458765
5	0x3f1ded8f	0.6169061
6	0x3ed163ea	0.4089654
7	0x3f625ad3	0.88419837
8	0xbe8a4020	-0.27002048
9	0xbf5a283e	-0.85217655
10	0x3ec5bab4	0.38619006
11	0x3e097e4c	0.13427085
12	0xbe219219	-0.15778388
13	0x3e311ff5	0.17297347
14	0xbd1500f7	-0.036377873
15	0x3ea96ccb	0.33090815
16	0x3f8f017a	1.1172326
17	0xbf473f75	-0.778312
18	0x3f2bc1b8	0.67092466
19	0xbf660e56	-0.89865625
20	0xbf946909	-1.1594554
21	0x3f9107d3	1.1330513
22	0x3e871650	0.2638421
23	0x3eef3fdd	0.4672841
24	0x3eafa8ba	0.34308416
25	0x3eab0b33	0.33406982
26	0xbf469442	-0.77569973
27	0x3ef295ae	0.47379822
28	0xbf3e3bc0	-0.7430992
29	0xbf5c5fd2	-0.8608371
30	0x3f1aa8d3	0.60413855
31	0x3e3a9972	0.18222597

Conv_sequential_4/model_4/separable_conv2d_3/separable_conv2d/depthwise:0.weight f4 [32, 1, 3, 3]
0	0xbca18671	-0.019717427
1	0x3db83b85	0.089957274
2	0xbbdb65db	-0.0066954917
3	0xbe643e23	-0.22289328
4	0xbc9222fc	-0.017838947
5	0x3dc13249	0.09433419
6	0xbda1eb3a	-0.07906194
7	0xbdc49ff3	-0.096008204
8	0x3da08f62	0.07839848
9	0xbe877e45	-0.26463524
10	0xbe381382	-0.17976192
11	0x3da3de2c	0.0800136
12	0xbe34f5eb	-0.17671935
13	0xbb904567	-0.0044028047
14	0x3df73fc0	0.12072706
15	0xbe0d5e81	-0.13805582
16	0x3d6307c3	0.055427324
17	0x3dfb6704	0.12275508
18	0xbc777226	-0.015102899
19	0x3cf0e1e8	0.029404595
20	0x3a5e4f65	0.00084804586
21	0x3e19ab69	0.15006794
22	0x3ddcf64a	0.107891634
23	0x3c9fb413	0.019495046
24	0x3e37712a	0.17914262
25	0x3d0291f6	0.03187748
26	0x3d48abed	0.048992086
27	0x3b32e36d	0.00272962
28	0xbce8763e	-0.028376695
29	0xbe950bd3	-0.29110584
30	0x3d724a03	0.059152614
31	0x3d1a69cd	0.037698556
32	0xbd660e6e	-0.056166105
33	0x3ca11a73	0.019665932
34	0xbd4324b4	-0.047642425
35	0xbc5a7833	-0.013334322
36	0xbe2a0cf9	-0.16606511
37	0xbdd1f1da	-0.10251208
38	0xbd35f230	-0.04442042
39	0xbe276b2a	-0.16349474
40	0x3ced61ac	0.028977238
41	0xbe5f1de1	-0.21788742
42	0x3c8270f8	0.015923008
43	0xbd0cafd6	-0.034347378
44	0xbd8a7e8b	-0.067624174
45	0x3d70fa63	0.058832537
46	0xbe0eedd5	-0.13957913
47	0xbe02d489	-0.12776388
48	0x3d6b4d78	0.057446927
49	0xbdd431a3	-0.1036103
50	0xbd9ce022	-0.076599374
51	0xbe1e8f2f	-0.15484308
52	0x39d4dfb2	0.00040602457
53	0x3db8a49d	0.090157725
54	0x3e5af026	0.21380672
55	0x3e7c14e7	0.24617349
56	0x3e8c8817	0.27447578
57	0x3dd5b300	0.10434532
58	0x3ddcc0ae	0.10778938
59	0x3dbd0647	0.09229713
60	0xbd9828d1	-0.0742966
61	0x3d3ed518	0.04658994
62	0xbdb4c41f	-0.0882647
63	0x3e1f2dc2	0.15544799
64	0x3e394c7a	0.1809558
65	0xbd083396	-0.03325232
66	0x3e97c761	0.29644302
67	0x3e2bc208	0.16773236
68	0xbd6f0818	-0.05835733
69	0x3ce0df49	0.02745022
70	0x3d462530	0.04837531
71	0xbd216e90	-0.03941208
72	0x3d83402a	0.06408723
73	0x3c774402	0.015091898
74	0xbdbdc24c	-0.09265575
75	0x3e7b77ad	0.24557371
76	0x3e05b16a	0.1305596
77	0x3d5eff59	0.054442737
78	0x3d9de4b6	0.07709639
79	0x3e4daaa6	0.20084628
80	0x3ddd733b	0.10812994
81	0x3d9ae570	0.07563293
82	0xbbdb4206	-0.00669122
83	0x3d84dc27	0.06487303
84	0x3e3dfb5a	0.18552914
85	0x3de68045	0.11254934
86	0x3d8c8409	0.06861121
87	0x3e481977	0.19540964
88	0x3d7f0fe3	0.06227101
89	0x3dad8fe5	0.08474711
90	0xbdd8c012	-0.105835095
91	0xbd99660d	-0.07490168
92	0x3dd9ee9d	0.10641215
93	0x3e04adf4	0.12956983
94	0xbea1c721	-0.31597236
95	0x3b3d73c2	0.0028908108
96	0x3e525b96	0.2054275
97	0xbe1ba495	-0.15199502
98	0xbbc3f15d	-0.0059797005
99	0xbd392ca1	-0.045208577
100	0xbe2b8323	-0.16749243
101	0xbe739e1d	-0.23790784
102	0xbb5fd402	-0.0034153466
103	0xbaa29e79	-0.0012406848
104	0xbe4016b2	-0.18758658
105	0xbdc8db82	-0.09807493
106	0x3db37478	0.08762449
107	0x3d276f63	0.04087771
108	0xbd515460	-0.051105857
109	0x3cc985b9	0.024599897
110	0xbe0d42a8	-0.13794959
111	0xbe20f724	-0.15719277
112	0xbe105e28	-0.14098418
113	0xbe12f71d	-0.14352079
114	0xbd7bc18a	-0.06146387
115	0xbe581886	-0.21103105
116	0x3c73f6c4	0.0148903765
117	0x3df4dc45	0.119560756
118	0x3db963e3	0.09052255
119	0xbddad577	-0.106852464
120	0x3dc4b5fc	0.09605023
121	0x3ba09a01	0.004901171
122	0xbd22ae87	-0.039717223
123	0xbe0f6438	-0.14003074
124	0xbde54cce	-0.1119629
125	0xbdd8fdff	-0.10595321
126	0x3ce733a6	0.02822287
127	0xbcb85727	-0.022502495
128	0x3db03b54	0.08605066
129	0xbcf9fdcb	-0.030516526
130	0xbe2835ee	-0.16426823
131	0x3c91525b	0.017739465
132	0x3df711d4	0.12063947
133	0xbd97a13f	-0.07403802
134	0x3bcef66b	0.0063159964
135	0xbd6c5f80	-0.057708263
136	0xbd7535b2	-0.05986566
137	0x3e0afc53	0.13572817
138	0xbd8d66be	-0.06904362
139	0xbda0c1df	-0.07849478
140	0xbe0da6f4	-0.13833219
141	0xbe2b9bd3	-0.16758661
142	0xbdda474b	-0.10658129
143	0xbe28f6af	-0.16500352
144	0x3dd32be5	0.103111066
145	0xbd9bac74	-0.07601252
146	0xbd80da63	-0.06291654
147	0x3dc0edce	0.09420358
148	0xbded87e2	-0.11598183
149	0xbe4bfff3	-0.19921856
150	0x3d8e8b81	0.06960202
151	0xbe0224d1	-0.12709357
152	0xbe2cdaf4	-0.16880399
153	0x3e0a485b	0.13504164
154	0x3e115abb	0.14194767
155	0xbc25c277	-0.010117165
156	0x3d898266	0.06714325
157	0x3e1c6b77	0.1527537
158	0x3b5dc898	0.0033841487
159	0xbe3f354e	-0.18672678
160	0xbc3b153d	-0.011418638
161	0x3e43a979	0.19107617
162	0x3d735ac6	0.05941274
163	0xbe4991e1	-0.19684555
164	0xbe6dbdc0	-0.23216915
165	0x3e2922bd	0.16517158
166	0x3d447329	0.047961388
167	0x3d0901ac	0.03344886
168	0x3d3a51b2	0.045488067
169	0x3d096c13	0.033550333
170	0x3debfd08	0.11522871
171	0xbc3bd62e	-0.011464639
172	0xbdb5bc13	-0.08873763
173	0xbdce7a76	-0.10081951
174	0xbda33fb9	-0.079711385
175	0xbd901189	-0.070345946
176	0xbdbdf9f9	-0.09276194
177	0xbcc0125b	-0.023446253
178	0xbd70e544	-0.058812395
179	0xbd8a3e42	-0.06750156
180	0xbdadb452	-0.08481659
181	0xbdc75e05	-0.0973473
182	0x3e1c56fb	0.15267555
183	0x3e1e4440	0.15455723
184	0x3e56cd28	0.20976698
185	0x3e736b80	0.23771477
186	0x3ce4144a	0.027841706
187	0x3dde0862	0.10841443
188	0x3e274665	0.16335447
189	0x3e9fc7c3	0.31207094
190	0x3d724184	0.05914451
191	0x3d5ca48b	0.053867858
192	0x3de0c2e0	0.109746695
193	0xbd879aba	-0.066213086
194	0x3e0000ea	0.12500349
195	0xbdc7552d	-0.09733043
196	0xbe4bf743	-0.19918542
197	0x3c71168a	0.014714846
198	0x3d2fb8fb	0.04290102
199	0x3b457593	0.0030129894
200	0xbdd629a6	-0.104571626
201	0xbd548f21	-0.05189431
202	0xbe5da974	-0.21646672
203	0xbd23eb36	-0.040019237
204	0xbd683307	-0.05668929
205	0xbe19ab89	-0.15006842
206	0xbe7efa01	-0.24900056
207	0x3dc8a96e	0.09797941
208	0xbda36d23	-0.079798006
209	0xbcc84718	-0.024447963
210	0x3e526827	0.20547543
211	0x3da8953a	0.08231588
212	0xbd566233	-0.052339744
213	0x3dc1145d	0.09427712
214	0x3e527d66	0.20555648
215	0xbdc97a0a	-0.0983773
216	0x3de23bf6	0.11046593
217	0x3c63214e	0.013862921
218	0xbd7a5cb0	-0.06112355
219	0x3e6cedd8	0.23137605
220	0x3e50f767	0.20406877
221	0x3c883be7	0.016630126
222	0x3e4321f1	0.19055916
223	0x3da152f5	0.07877151
224	0xbd7da51a	-0.06192503
225	0xbdce6a81	-0.10078908
226	0xbe557b53	-0.20847826
227	0xbdf9e26c	-0.1220139
228	0x3d8f294f	0.06990301
229	0x3df3201c	0.11871359
230	0xbe3f429b	-0.18677752
231	0x3dbda93d	0.09260795
232	0x3e10610b	0.14099519
233	0xbe0ff976	-0.14060006
234	0xbe1a470a	-0.15066162
235	0xbe11fe8c	-0.14257258
236	0xbdf7c488	-0.12098032
237	0xbe2dab10	-0.16959786
238	0xbe505e54	-0.20348483
239	0xbd5a494e	-0.053292565
240	0xbbcd2f4b	-0.0062617413
241	0xbdb4bce6	-0.08825092
242	0x3a79d0d1	0.0009529712
243	0xbdb54923	-0.0885184
244	0x3bfdfd39	0.0077511338
245	0x3da35c7a	0.07976623
246	0xbdd0c363	-0.10193517
247	0xbdf938b3	-0.12169018
248	0x3db1a6f9	0.08674426
249	0xbe1d42ea	-0.15357557
250	0xbdc02c74	-0.09383479
251	0x3d33deb1	0.043913547
252	0x3daddbbf	0.08489179
253	0x3e13d560	0.14436865
254	0xbdeb3354	-0.114843994
255	0x3d7266d7	0.059180107
